gest_classifier_1.pth (torch, 62551 bytes, 6 tensors)

fc1.weight f4 [128, 51]
-0.044599045 -0.09667179 -0.06940746 -0.08296329 0.008110319 0.027827716 0.025480865 0.1261699
-0.035836376 -0.092625126 -0.01640127 0.033383828 -0.0031468298 0.121056296 0.11552078 0.107307784
-0.10787921 -0.099897586 0.13930932 0.00040002243 -0.048280306 -0.09924312 -0.0041248016 0.037843566
-0.043507513 -0.0015422163 -0.07734585 -0.091306604 -0.13617668 -0.03325937 -0.030067384 0.006574797
-0.07791957 -0.011123041 -0.11335641 0.021168422 0.021390015 -0.13758762 -0.056227006 0.036956705
0.092746325 -0.050434075 -0.13544971 0.11366733 -0.13730852 -0.040850747 -0.10105282 0.045781687
-0.065596715 -0.110519 -0.10423689 0.05144725 -0.022726528 -0.10850977 -0.047004674 0.00096827326
-0.09549315 -0.07419595 0.04536432 -0.12146879 -0.095490195 0.07626134 -0.09413644 -0.060236778
0.08587871 -0.060930606 0.04784139 -0.082231335 0.006484056 -0.082511656 -0.03556038 -0.0457164
-0.117261924 -0.04747809 -0.11939536 -0.055360105 -0.1388771 -0.1105302 0.113128826 -0.023953922
-0.079031855 0.12846245 0.046861567 0.124025635 -0.085833475 0.108122185 0.034136984 0.021335732
-0.01433619 0.034285046 0.06265963 -0.13268 -0.11665565 -0.13764343 -0.060200773 0.124849014
-0.13545944 -0.09141874 0.08472788 0.07215856 -0.021275237 0.05247455 0.029918741 0.034421798
-0.087858096 0.05701145 0.07012231 -0.066024825 -0.09856156 -0.056918487 -0.13691778 0.078577496
0.044339087 -0.08308111 0.036349032 -0.008395843 0.080250666 0.1087499 -0.03294246 -0.026719997
0.066049926 0.105366185 -0.08093888 0.0014477922 -0.05572779 0.019205863 0.107226655 0.035588007
0.029212758 0.11398405 -0.06139702 -0.17551571 -0.050572667 -0.007925253 -0.06350525 -0.023327855
-0.04249674 -0.027224852 0.003035261 -0.10388867 -0.0009598015 -0.02259788 0.012916094 0.05489547
-0.012874644 -0.014387003 -0.17193758 -0.12573184 -0.039774776 -0.07512588 0.06573832 -0.04101242
-0.1442063 -0.015036189 0.065421425 -0.0034605516 0.12103015 -0.055085853 0.04484644 -0.015976673
-0.08011353 0.10614542 0.058608342 0.11569645 0.09580072 -0.1029274 -0.10305704 0.042727068
0.117115185 0.0060846996 0.098365426 -0.12558727 -0.12573537 -0.13586977 0.08009836 0.004051457
-0.106573135 -0.06375415 0.08818785 -0.018320194 -0.08568013 -0.13309638 0.059212726 0.038793936
-0.13551849 0.07175119 0.0053302413 0.013399573 0.03400176 0.049692582 -0.09847602 0.04356123
-0.035161436 -0.09801909 0.031338703 0.0015670132 0.06830654 -0.040916115 0.05956203 0.12181321
0.094519675 -0.08882274 -0.11831758 -0.13683663 -0.120125085 0.06869143 0.053641852 0.089118846
-0.04454052 0.09955485 -0.004884982 -0.0040671877 -0.089505464 -0.081948 -0.11350118 0.0066578076
-0.04645007 0.11326555 0.0011289893 0.08078045 0.105072185 -0.0026122036 -0.024428543 0.049264103
-0.042220484 0.033083856 -0.0025390813 0.041626178 0.032739215 -0.12733819 0.047586177 0.08035736
-0.08036408 0.031404514 0.14319852 0.103217535 -0.01869042 0.07155024 -0.0138104595 0.089059874
-0.12099591 0.081700996 -0.11797442 0.12414729 -0.052082628 0.00024913432 0.012800192 -0.131621
0.0397026 0.062111977 -0.0039787716 -0.13041371 0.113999754 -0.10186547 -0.02500964 -0.13240544
00000000: 7dad 36bd dcfb c5bd 8025 8ebd a8e8 a9bd
00000010: 25e1 043c f3f6 e33c 3fbd d03c af32 013e
00000020: 2ac9 12bd 3eb2 bdbd f55b 86bc 7bbd 083d
00000030: 0b3b 4ebb 5dec f73d 2996 ec3d 2fc4 db3d
00000040: c6ef dcbd 1b97 ccbd 1aa7 0e3e 1aba d139
00000050: 92c1 45bd fa3f cbbd 5829 87bb db01 1b3d
00000060: ef34 32bd 3124 caba 8067 9ebd f5fe babd
00000070: e671 0bbe fa3a 08bd e04f f6bc 6571 d73b
00000080: 4c94 9fbd 6a3d 36bc 6827 e8bd 6669 ad3c
00000090: 1d3a af3c c5e3 0cbe 4a4e 66bd ea5f 173d
000000a0: c9f1 bd3d f693 4ebd 54b3 0abe 6bca e83d
000000b0: 9b9a 0cbe 1d53 27bd c8f4 cebd 9485 3b3d
000000c0: 9257 86bd c957 e2bd 277a d5bd 5aba 523d
000000d0: fc2c babc 5f3a debd f987 40bd b8d3 7d3a
000000e0: ea91 c3bd 0cf4 97bd f0cf 393d a1c4 f8bd
000000f0: 5d90 c3bd e82e 9c3d 9bca c0bd d7ba 76bd
00000100: 2de1 af3d 5f92 79bd 55f5 433d e768 a8bd
00000110: 3478 d43b dffb a8bd c3a7 11bd 1f41 3bbd
00000120: 0527 f0bd 6378 42bd 8e85 f4bd 47c1 62bd
00000130: cc35 0ebe a85d e2bd 16b0 e73d 043b c4bc
00000140: 74db a1bd a98b 033e eaf1 3f3d 2701 fe3d
00000150: 76c9 afbd 2a6f dd3d 39d3 0b3d 46c8 ae3c
00000160: 57e2 6abc 7a6e 0c3d b153 803d 44dd 07be
00000170: 28e9 eebd 66f2 0cbe 1695 76bd d7b0 ff3d
00000180: e1b5 0abe c039 bbbd d085 ad3d dec7 933d
00000190: 6849 aebc 8eef 563d 2618 f53c dffd 0c3d
000001a0: f2ee b3bd d784 693d 499c 8f3d 0638 87bd
000001b0: a5da c9bd 5c23 69bd 2d34 0cbe 3ded a03d
000001c0: e79c 353d 6e26 aabd b9e2 143d b88e 09bc
000001d0: 765a a43d 44b8 de3d acee 06bd e5e3 dabc
000001e0: 2f45 873d 3aca d73d 49c3 a5bd d8c3 bd3a
000001f0: d342 64bd 9d55 9d3c a699 db3d bbc4 113d
00000200: 984f ef3c 7870 e93d 717b 7bbd 64ba 33be
00000210: 4925 4fbd ecd8 01bc 0a0f 82bd 0f1a bfbc
00000220: 1011 2ebd a706 dfbc 3beb 463b 95c3 d4bd
00000230: 309b 7bba 301f b9bc 069e 533c 13da 603d
00000240: 2cf0 52bc 77b7 6bbc 6810 30be d9bf 00be
00000250: e0ea 22bd 99db 99bd d0a1 863d a4fc 27bd
00000260: d1aa 13be 595a 76bc abfb 853d 6cca 62bb
00000270: a8de f73d b4a1 61bd e7b0 373d 83e1 82bc
00000280: 9012 a4bd c562 d93d 4d0f 703d 43f2 ec3d
00000290: 2b33 c43d 9acb d2bd 920f d3bd 9402 2f3d
000002a0: 16da ef3d 2962 c73b d073 c93d f399 00be
000002b0: c6c0 00be 7221 0bbe 9c0a a43d 16c2 843b
000002c0: 0443 dabd 8991 82bd d59b b43d 3b14 96bc
000002d0: 1079 afbd 6b4a 08be 0b89 723d 64e6 1e3d
000002e0: 5cc5 0abe 4af2 923d 4ea9 ae3b e289 5b3c
000002f0: 6e45 0b3d 738a 4b3d ccad c9bd 436d 323d
00000300: 7005 10bd 3cbe c8bd 035d 003d 3d64 cd3a
00000310: 4de4 8b3d a897 27bd 51f7 733d 3479 f93d
00000320: 8893 c13d b2e8 b5bd 7d50 f2bd e71e 0cbe
00000330: 2404 f6bd 18ae 8c3d 8fb7 5b3d f183 b63d
00000340: 1f70 36bd 6ae3 cb3d 3312 a0bb 0b46 85bb
00000350: a44e b7bd 5ad4 a7bd 4f73 e8bd bd29 da3b
00000360: 6e42 3ebd c5f7 e73d 98fa 933a 3870 a53d
00000370: 1630 d73d 8131 2bbb 5e1e c8bc 28c9 493d
00000380: 63ef 2cbd f082 073d b766 26bb 3680 2a3d
00000390: 8e19 063d f164 02be b9e9 423d 6692 a43d
000003a0: ec95 a4bd 05a2 003d a2a2 123e b763 d33d
000003b0: a71c 99bc ef88 923d 4445 62bc 0665 b63d
000003c0: b4cc f7bd da52 a73d 939c f1bd ef40 fe3d
000003d0: 9854 55bd 3e9e 8239 e6b7 513c a8c7 06be
000003e0: 329f 223d 2169 7e3d 5b60 82bb 2c8b 05be
000003f0: b478 e93d d89e d0bd 04e1 ccbc 4b95 07be

fc1.bias f4 [128]
-0.068583764 -0.10874415 -0.036469735 -0.0022540803 -0.10849506 0.071071565 -0.09827261 0.1148917
0.102220505 -0.11370839 -0.04379471 -0.09682489 0.042123385 0.13801357 -0.00977249 0.015243106
-0.07685138 -0.017655605 -0.14774969 -0.03209187 0.06768997 0.119055495 0.0020248678 -0.037250116
0.06381373 -0.04031019 0.018016413 0.1095806 0.106897846 -0.06557693 0.07057427 0.13270473
-0.08549547 0.11362059 -0.074149795 -0.11219946 -0.09257647 -0.03818327 0.014375685 0.104742154
0.12971593 -0.015418147 0.04831392 0.023769675 0.032850336 -0.011423064 -0.028472055 0.05742806
-0.023283385 -0.14906843 -0.060163647 -0.06452358 0.076953225 -0.0027944148 -0.051271733 0.008402401
-0.123532824 0.08756162 -0.12578449 -0.1085097 -0.050215036 0.07793091 -0.083349414 -0.115997426
0.0138662085 -0.11661079 -0.107162826 0.1042654 0.03672525 -0.080168374 -0.07527201 0.09972352
0.047031444 -0.14864972 -0.039695147 0.114667065 -0.111238845 -0.01176766 0.00834344 -0.04395703
-0.009856049 0.051827233 -0.035377268 0.0017748486 -0.027093204 0.086149 0.1095603 0.07108238
-0.064527385 0.024926592 -0.05593038 0.08663756 0.018729338 -0.025083441 -0.046922676 -0.08905982
-0.14327635 0.060352005 -0.120475724 0.046077147 0.13753714 0.046033777 -0.12288784 0.047886662
0.07902479 -0.096316464 -0.054274507 0.024900896 -0.050424393 -0.07899376 0.081473425 0.10862255
-0.041494817 0.0106455 -0.10347163 -0.003524818 0.04383489 -0.101032406 -0.06988237 0.07491028
-0.14108495 -0.014364991 0.061697338 -0.10945088 0.015084198 -0.036087796 -0.102590844 0.1407776
00000000: a575 8cbd 41b5 debd 4a61 15bd 31b9 13bb
00000010: a832 debd f88d 913d 2643 c9bd 574c eb3d
00000020: fc58 d13d f2df e8bd 1562 33bd 214c c6bd
00000030: 9289 2c3d 6e53 0d3e cb1c 20bc 38be 793c
00000040: 4264 9dbd 7da2 90bc b24b 17be c472 03bd
00000050: 0aa1 8a3d 5ed3 f33d a5b3 043b 9493 18bd
00000060: c6b0 823d 4c1c 25bd 2897 933c cb6b e03d
00000070: 42ed da3d 334d 86bd 3e89 903d c0e3 073e
00000080: 4018 afbd e9b1 e83d d9db 97bd d5c8 e5bd
00000090: bb98 bdbd 0f66 1cbd fe87 6b3c 0e83 d63d
000000a0: 41d4 043e 659c 7cbc d1e4 453d 9fb8 c23c
000000b0: 138e 063d ce27 3bbc 3a3e e9bc af39 6b3d
000000c0: ccbc bebc 65a5 18be 286e 76bd f024 84bd
000000d0: a799 9d3d 8022 37bb 4f02 52bd 39aa 093c
000000e0: c7fe fcbd 8253 b33d a6cd 00be 553a debd
000000f0: 48ae 4dbd 3e9a 9f3d 19b3 aabd 0f90 edbd
00000100: 182f 633c a3d1 eebd 2f78 dbbd 1989 d53d
00000110: 376d 163d 512f a4bd 3628 9abd d83b cc3d
00000120: 0ba4 403d a237 18be 6197 22bd 91d6 ea3d
00000130: 31d1 e3bd 25cd 40bc ecb2 083c 490c 34bd
00000140: 447b 21bc cb48 543d c1e7 10bd 09a2 e83a
00000150: 91f2 ddbc e36e b03d 2761 e03d a493 913d
00000160: ef26 84bd da32 cc3c 4117 65bd 086f b13d
00000170: 456e 993c ca7b cdbc fe31 40bd ff64 b6bd
00000180: 09b7 12be aa33 773d fabb f6bd 64bb 3c3d
00000190: 89d6 0c3e ea8d 3c3d 9fac fbbd ce24 443d
000001a0: c0d7 a13d 9141 c5bd f24e 5ebd f7fc cb3c
000001b0: cf89 4ebd 7bc7 a1bd 8adb a63d 8075 de3d
000001c0: 78f6 29bd 776a 2e3c efe8 d3bd a200 67bb
000001d0: 378c 333d 14ea cebd 7d1e 8fbd 906a 993d
000001e0: 9378 10be 245b 6bbc 59b6 7c3d c827 e0bd
000001f0: b623 773c ccd0 13bd 261b d2bd 0128 103e

fc2.weight f4 [64, 128]
0.06346961 0.08672212 -0.04432353 0.0638697 -0.039438765 0.061411325 0.04761097 -0.029779691
0.053172197 -0.026621478 0.027335076 -0.010651162 -0.02207206 -0.0008702815 -0.11789717 0.07594772
0.024438903 0.06323192 0.015244945 -0.035700493 0.07183563 0.045563247 -0.061453935 -0.08279078
-0.010764902 -0.03850738 -0.007930172 0.07603351 0.017427055 0.043875333 0.023716548 0.031735767
-0.05374366 0.07689159 0.07293349 0.0154413255 -0.07277413 -0.0726786 -0.082867384 -0.09103027
0.04843092 0.03755062 -0.0059078136 0.06540272 0.07584157 -0.042105854 0.012836017 -0.030577388
0.01294833 -0.012737551 -0.02542497 -0.062910095 -0.031708278 0.071623065 -0.06281537 -0.057419315
0.0711247 0.08484862 0.033527337 -0.075173385 -0.03848556 0.05720226 0.018848795 -0.028527431
-0.012602161 0.001901839 0.036084633 0.07150455 -0.05281371 0.02848311 -0.06723969 -0.017907064
-0.038330864 -0.013739949 -0.0446176 -0.08050972 -0.030537222 -0.009824725 -0.08651926 0.047348708
-0.007958008 -0.004572953 -0.0066089053 -0.08007017 0.010109066 -0.010000876 -0.062815055 -0.07858498
-0.029378148 0.029919641 0.003139437 0.010358168 -0.008152679 -0.04953464 0.008137998 -0.022757899
-0.06341101 -0.04298355 0.009404833 0.07360193 -0.05732196 -0.07947979 -0.047519524 -0.023575967
0.08335948 0.022376807 0.07545128 0.06749926 0.009236113 -0.024617648 -0.09032039 0.00660754
0.08506178 0.005813947 -0.0049891905 -0.037651327 0.038493916 -0.07773776 0.03204072 0.05885646
0.025630547 -0.058064796 -0.0072832196 0.07031173 0.01571878 0.06426434 0.0067653456 -0.067377135
-0.07683246 -0.0066085835 -0.01351581 -0.03173885 -0.08725371 -0.0009636034 0.07296671 -0.0856154
-0.002994502 0.036594413 -0.0072935224 0.051844165 -0.005195842 -0.05031595 0.02325877 0.027193073
-0.058279637 0.07226172 -0.067969576 0.05500587 -0.06148848 -0.07820711 0.042785708 -0.021840202
0.026923249 0.0029893706 -0.043376558 -0.042161863 0.0831379 -0.04537379 -0.014024574 -0.057820965
-0.008589127 -0.068229795 -0.08058705 0.05713841 0.025850262 -0.008615932 -0.012100739 -0.051406015
0.0639717 0.08215414 -0.06336571 0.05079711 0.044603314 0.06264079 0.07361645 0.03283288
-0.024633527 -0.08537079 0.0040995604 0.023805678 0.029175207 -0.025168063 0.030805806 -0.059844542
-0.031783056 -0.08544303 0.042207833 -0.07411956 0.029296665 -0.042504158 0.07294099 0.0074795377
0.08658953 0.066341795 -0.017121272 -0.07414911 -0.04226624 -0.06274123 -0.07611942 -0.00075864326
-0.08173482 0.055215478 -0.043709356 0.07763556 0.053432964 0.018096898 -0.03645083 0.053228647
0.038688205 0.002135981 -0.040482786 -0.03032631 -0.04735563 0.08650523 -0.06263088 -0.048983898
0.08559961 -0.0039489698 -0.061617438 -0.027880771 -0.07468043 0.042329945 0.083309904 0.053613234
0.08726625 -0.054529823 0.06853446 -0.014993583 -0.02004484 0.03574772 0.059343774 -0.06253414
0.0027097156 -0.0218121 0.08135567 0.046515327 0.009607153 -0.065296836 -0.004415198 0.0367414
-0.029860146 0.007912607 0.07810903 0.016004559 0.058429398 -0.0144674955 0.0407777 0.06275554
-0.016146805 -0.073276155 0.056025192 0.07831874 -0.074127644 -0.050943527 -0.06276394 -0.021809319
00000000: 5bfc 813d 5e9b b13d 978c 35bd 1ece 823d
00000010: 8b8a 21bd 718a 7b3d b803 433d 8af4 f3bc
00000020: 17cb 593d 4915 dabc cfed df3c 3682 2ebc
00000030: 77d0 b4bc 9a23 64ba 1274 f1bd 7a8a 9b3d
00000040: 1834 c83c bd7f 813d efc5 793c ae3a 12bd
00000050: 8f1e 933d 87a0 3a3d 1fb7 7bbd 368e a9bd
00000060: 465f 30bc eab9 1dbd 8ded 01bc 75b7 9b3d
00000070: 2fc3 8e3c 9fb6 333d 3549 c23c 5dfd 013d
00000080: 5022 5cbd 5779 9d3d 275e 953d 9dfd 7c3c
00000090: 9a0a 95bd 85d8 94bd 60b6 a9bd 146e babd
000000a0: 805f 463d aece 193d 5596 c1bb dcf1 853d
000000b0: d352 9b3d 3077 2cbd 284e 523c 6e7d fabc
000000c0: 3b25 543c 29b1 50bc 0748 d0bc 02d7 80bd
000000d0: 8ae0 01bd 1daf 923d 58a5 80bd 8430 6bbd
000000e0: d4a9 913d 1dc5 ad3d f653 093d 81f4 99bd
000000f0: 09a3 1dbd eb4c 6a3d ca68 9a3c 5cb2 e9bc
00000100: 4b79 4ebc 2147 f93a 7bcd 133d fa70 923d
00000110: 3053 58bd 6955 e93c f6b4 89bd d6b1 92bc
00000120: d300 1dbd 861d 61bc f2c0 36bd 48e2 a4bd
00000130: 3229 fabc e2f7 20bc 0331 b1bd b8f0 413d
00000140: 4e62 02bc b6d8 95bb 848f d8bb d4fb a3bd
00000150: 7fa0 253c b7da 23bc 2ea5 80bd 29f1 a0bd
00000160: 71aa f0bc 091a f53c 03bf 4d3b 4eb5 293c
00000170: d092 05bc d6e4 4abd 3d55 053c c66e babc
00000180: a2dd 81bd 850f 30bd bb16 1a3c 9cbc 963d
00000190: 6eca 6abd 4dc6 a2bd d5a3 42bd 6322 c1bc
000001a0: 60b8 aa3d 914f b73c 3386 9a3d 0d3d 8a3d
000001b0: 1153 173c f3aa c9bc e6f9 b8bd 1084 d83b
000001c0: df34 ae3d ec82 be3b 5d7c a3bb 4738 1abd
000001d0: ccab 1d3d fa34 9fbd 213d 033d 7913 713d
000001e0: 27f7 d13c 5ad5 6dbd 13a8 eebb 99ff 8f3d
000001f0: acc4 803c 069d 833d d5af dd3b 06fd 89bd
00000200: 565a 9dbd d18c d8bb 6a71 5dbc 9900 02bd
00000210: 13b2 b2bd 549a 7cba 926f 953d 2057 afbd
00000220: 683f 44bb 06e4 153d 80fe eebb 8c5a 543d
00000230: e241 aabb 1918 4ebd 2d89 be3c 02c4 de3c
00000240: a1b6 6ebd f4fd 933d a233 8bbd d64d 613d
00000250: 58db 7bbd 0d2b a0bd 1140 2f3d 39ea b2bc
00000260: 258e dc3c 51e9 433b 9eab 31bd ebb1 2cbd
00000270: 3444 aa3d ded9 39bd 54c7 65bc add5 6cbd
00000280: 69b9 0cbc 10bc 8bbd d30a a5bd f709 6a3d
00000290: eec3 d33c d729 0dbc 2e42 46bc 1d8f 52bd
000002a0: 9803 833d 6e40 a83d e2c5 81bd a110 503d
000002b0: f7b1 363d d149 803d 39c4 963d c57b 063d
000002c0: 40cc c9bc e1d6 aebd 9b55 863b 2004 c33c
000002d0: d800 ef3c 412d cebc 755c fc3c 8d1f 75bd
000002e0: f32e 02bd c1fc aebd 1fe2 2c3d ffcb 97bd
000002f0: 8fff ef3c d718 2ebd 1662 953d e916 f53b
00000300: da55 b13d 35de 873d e941 8cbc 7ddb 97bd
00000310: 5d1f 2dbd 797e 80bd 80e4 9bbd b0df 46ba
00000320: 9664 a7bd a029 623d 9508 33bd 64ff 9e3d
00000330: 86dc 5a3d f23f 943c 774d 15bd 4806 5a3d
00000340: 8677 1e3d d1fb 0b3b 47d1 25bd e26e f8bc
00000350: faf7 41bd a729 b13d 9e44 80bd 57a3 48bd
00000360: d94e af3d 5c66 81bb 9162 7cbd 3766 e4bc
00000370: 0ef2 98bd 2a62 2d3d 629e aa3d 8d99 5b3d
00000380: a6b8 b23d aa5a 5fbd cc5b 8c3d a5a7 75bc
00000390: 1435 a4bc 346c 123d 7512 733d e611 80bd
000003a0: 7c95 313b 4aaf b2bc cd9d a63d db86 3e3d
000003b0: 5267 1d3c 59ba 85bd 5ead 90bb 267e 163d
000003c0: 449d f4bc e1a3 013c a1f7 9f3d fe1b 833c
000003d0: aa53 6f3d 1309 6dbc 8406 273d fa85 803d
000003e0: 4e46 84bc cf11 96bd ac7a 653d 9365 a03d
000003f0: 3cd0 97bd 29aa 50bd 618a 80bd 75a9 b2bc

fc2.bias f4 [64]
-0.0071005863 -0.08551414 -0.06849177 -0.028560953 0.039136074 -0.061346415 0.059668954 -0.063533925
-0.06126317 0.008714774 0.019426884 0.004683174 -0.09426181 0.016652666 0.07091996 -0.047357064
0.019921225 0.03393637 0.022859547 0.079112284 -0.047556777 0.027065767 0.03223026 0.06267648
-0.0273177 -0.012769502 -0.034824137 0.012696942 0.074549966 -0.029892908 0.05045784 0.06991707
0.06506151 0.06296694 0.07109009 -0.004689132 -0.039645724 -0.034826536 0.0633785 0.023336885
-0.018811757 0.029530266 -0.054869536 0.07883044 -0.076632656 0.07433389 -0.091662675 -0.05225939
0.05896685 0.065802 -0.080365814 0.08000328 0.05801301 0.053209864 0.055562176 -0.058780704
0.026995994 -0.031167537 0.041268785 -0.00841721 -0.02055322 -0.08351953 0.074752435 -0.08051548
00000000: 09ac e8bb 0a22 afbd 6a45 8cbd a9f8 e9bc
00000010: 264d 203d 6146 7bbd 6f67 743d 131e 82bd
00000020: 17ef 7abd 69c8 0e3c 2125 9f3c 5075 993b
00000030: 560c c1bd 2c6b 883c 7c3e 913d 7bf9 41bd
00000040: d631 a33c dd00 0b3d f243 bb3c 9f05 a23d
00000050: e5ca 42bd 07b9 dd3c e103 043d 875c 803d
00000060: 5fc9 dfbc 2c37 51bc c1a3 0ebd d606 503c
00000070: a7ad 983d f9e1 f4bc e1ac 4e3d ae30 8f3d
00000080: f83e 853d d0f4 803d ae97 913d 4aa7 99bb
00000090: 8e63 22bd 45a6 0ebd 96cc 813d ff2c bf3c
000000a0: 1d1b 9abc 75e9 f13c e1be 60bd db71 a13d
000000b0: 95f1 9cbd 5e3c 983d a4b9 bbbd f10d 56bd
000000c0: 3987 713d 33c3 863d d596 a4bd c2d8 a33d
000000d0: 0d9f 6d3d 96f2 593d 2a95 633d 09c4 70bd
000000e0: b426 dd3c 1053 ffbc 7509 293d 56e8 09bc
000000f0: 3a5f a8bc 4a0c abbd ce17 993d 4de5 a4bd

fc3.weight f4 [4, 64]
0.077537805 0.083302915 -0.0729745 0.01694921 0.040712122 -0.02905739 0.08874424 0.06952858
0.093920276 0.0343217 -0.07774292 -0.08724136 -0.08121603 -0.12703276 0.054362465 0.11715656
-0.08144684 -0.08817467 -0.09622212 0.054167073 0.09878357 -0.08486468 0.026752377 0.043345746
0.10912238 0.015977368 -0.07974524 -0.0881831 -0.06867104 -0.0152366385 0.11028015 0.004166079
-0.057148255 0.055075854 0.1135244 0.019052835 0.03289439 -0.10759154 -0.022670532 0.097202644
0.015882766 -0.002043302 -0.109983355 0.018367065 0.11286452 0.022555796 -0.059914455 0.0021031466
-0.030644448 -0.0565503 -0.097078115 -0.077446856 0.019775983 0.006330483 0.018180143 0.11324855
0.03650965 0.028916962 -0.025213882 0.01097131 -0.07051449 0.029764542 -0.08064615 0.09963588
0.01324636 -0.05239351 0.12619755 -0.04975307 -0.030334853 0.110657506 -0.049698748 -0.087662816
0.03924743 -0.025118144 0.030594792 -0.04003582 0.06940151 -0.0034238887 -0.068755195 -0.026604839
-0.058949154 0.07158515 0.02078341 -0.054360256 0.078397974 -0.09372257 -0.111571066 0.041413534
0.110179245 0.09695685 -0.06366745 -0.010102338 0.004500058 0.12349066 -0.0860415 0.0119231995
0.051261928 -0.015279018 0.12026188 0.120217144 0.06638713 0.18673077 -0.12427669 0.07234145
-0.07958199 -0.09054542 0.085540995 0.10557787 0.074310884 0.10859001 -0.04827219 0.07045651
-0.0059608496 -0.004030158 -0.106570505 0.09769564 -0.03980642 -0.10153254 -0.03359119 0.025017636
0.09257689 0.105985254 0.07320424 -0.063230634 0.041524824 -0.03608035 0.0039150394 -0.06320928
-0.04211904 0.09873514 0.0016653325 0.036962952 -0.09438901 -0.09132871 -0.041089904 0.05873705
-0.082272224 0.07382639 -0.12637064 -0.109497294 0.077793844 -0.037401363 -0.006695784 0.01359391
0.03611536 -0.040595353 0.024990164 0.06840997 -0.02018404 0.0486467 -0.03663685 0.087285414
-0.006627962 0.12481248 0.00069034484 0.07026811 -0.027747886 0.007950104 0.023900729 -0.114055425
-0.08447278 -0.016804984 0.09780887 -0.03842355 0.07860698 0.049467426 -0.024588272 0.08050226
0.07781978 -0.028310996 -0.09277612 0.06757493 -0.036584407 0.010571698 0.073324144 0.057674553
0.048907537 -0.1129654 -0.04058441 -0.058700737 0.04796779 0.021894986 -0.027208522 -0.03816354
-0.034197852 0.08996013 -0.09430852 -0.06641675 -0.1010414 -0.0077746473 0.056720752 0.011871798
-0.032563616 0.06270988 -0.18744282 -0.1123565 0.038549073 0.090952806 -0.10894925 0.091753736
0.025876425 0.06580605 -0.026908329 0.10619176 -0.054217637 -0.0007103742 -0.054691315 0.12334097
-0.08944998 -0.0022097924 0.030869778 -0.063932866 0.08971402 -0.05829877 0.10374237 0.1018731
-0.0718012 -0.0015393223 -0.08735532 0.082444444 0.03248509 0.122562386 0.0759643 -0.12260393
-0.08898564 0.08629818 -0.012000242 0.020123422 -0.06444289 -0.029519483 0.040397294 0.025599128
0.0011747207 -0.11014448 0.026318938 -0.10715282 -0.07681543 -0.07530657 -0.14759353 0.04189191
-0.007609231 -0.10529821 0.050268263 0.10836914 -0.0017124157 0.06999058 -0.019475559 0.017569067
-0.05890625 0.073707834 0.07952385 -0.009376198 -0.022452548 0.024089256 0.08107039 0.0072378977
00000000: 24cc 9e3d b89a aa3d a873 95bd 12d9 8a3c
00000010: c1c1 263d c309 eebc 8abf b53d 0065 8e3d
00000020: 4659 c03d e994 0c3d ae37 9fbd 99ab b2bd
00000030: 9754 a6bd e014 02be 2dab 5e3d c7ef ef3d
00000040: 9acd a6bd ec94 b4bd 1a10 c5bd 4bde 5d3d
00000050: 0a4f ca3d 89cd adbd cd27 db3c 4f8b 313d
00000060: 8e7b df3d f8e2 823c 7951 a3bd 5799 b4bd
00000070: 67a3 8cbd 18a3 79bc 8fda e13d 9b83 883b
00000080: 4a14 6abd 3897 613d 7b7f e83d b114 9c3c
00000090: 45bc 063d f458 dcbd 8db7 b9bc 2e12 c73d
000000a0: 931c 823c ebe8 05bb f43e e1bd 8776 963c
000000b0: 8325 e73d efc6 b83c dc68 75bd f2d4 093b
000000c0: 110a fbbc 4aa1 67bd e4d0 c6bd 759c 9ebd
000000d0: 3e01 a23c f16f cf3b 86ee 943c dbee e73d
000000e0: 258b 153d 44e3 ec3c 588d cebc 02c1 333c
000000f0: e769 90bd c5d4 f33c cf29 a5bd e50d cc3d
00000100: 4307 593c 949a 56bd ee39 013e e0c9 4bbd
00000110: cc80 f8bc 67a0 e23d ea90 4bbd 9088 b3bd
00000120: eac1 203d 91c4 cdbc eea1 fa3c 9afc 23bd
00000130: 6122 8e3d 5263 60bb 86cf 8cbd 64f2 d9bc
00000140: ab74 71bd 3c9b 923d f841 aa3c dca8 5ebd
00000150: 1e8f a03d 9ef1 bfbd 5f7f e4bd 3da1 293d
00000160: a8a5 e13d 5091 c63d 1464 82bd 4784 25bc
00000170: 3975 933b ace8 fc3d 8736 b0bd 8659 433c
00000180: 07f8 513d d954 7abc dc4b f63d 6834 f63d
00000190: faf5 873d 5a36 3f3e c784 febd c127 943d
000001a0: e2fb a2bd e16f b9bd 1e30 af3d 3639 d83d
000001b0: 4e30 983d 7064 de3d 0fb9 45bd 814b 903d
000001c0: 3b53 c3bb 6a0f 84bb a341 dabd a714 c83d
000001d0: 0f0c 23bd 4bf0 cfbd ea96 09bd c9f1 cc3c
000001e0: f498 bd3d cc0e d93d 1bec 953d 107f 81bd
000001f0: ef15 2a3d fdc8 13bd bb49 803b de73 81bd
00000200: 0485 2cbd a635 ca3d 4947 da3a 7766 173d
00000210: 064f c1bd 8c0a bbbd e34d 28bd 4396 703d
00000220: 577e a8bd 4a32 973d 4e67 01be 1e40 e0bd
00000230: 6152 9f3d 2c32 19bd 4f68 dbbb feb8 5e3c
00000240: b3ed 133d 5047 26bd 2cb8 cc3c 871a 8c3d
00000250: 0059 a5bc c341 473d 8610 16bd b2c2 b23d
00000260: 602f d9bb af9d ff3d 42f8 343a bae8 8f3d
00000270: 894f e3bc 2741 023c 76cb c33c e495 e9bd
00000280: 1100 adbd 9baa 89bc 0450 c83d 0362 1dbd
00000290: b2fc a03d 5b9e 4a3d 586d c9bc 5ede a43d
000002a0: fa5f 9f3d 76ec e7bc 6801 bebd ba64 8a3d
000002b0: 88d9 15bd ea34 2d3c f82a 963d 273c 6c3d
000002c0: 4553 483d 675a e7bd d73b 26bd 2f70 70bd
000002d0: e079 443d 1d5d b33c 68e4 debc 5f51 1cbd
000002e0: 0c13 0cbd 043d b83d d324 c1bd 8105 88bd
000002f0: cbee cebd 78c2 febb 0554 683d ee81 423c
00000300: 6d61 05bd 0a6e 803d 03f1 3fbe 2a1b e6bd
00000310: a2e5 1d3d 7745 ba3d c920 dfbd 62e9 bb3d
00000320: ccfa d33c 53c5 863d db6e dcbc 117b d93d
00000330: 5013 5ebd 6838 3aba 0004 60bd 319a fc3d
00000340: 8d31 b7bd 2ad2 10bb 9ee2 fc3c 3cef 82bd
00000350: fcbb b73d b1ca 6ebd e176 d43d d8a2 d03d
00000360: 820c 93bd 16c3 c9ba 59e7 b2bd a2d8 a83d
00000370: 160f 053d fd01 fb3d 2c93 9b3d c517 fbbd
00000380: 1a3e b6bd 1abd b03d aa9c 44bc e0d9 a43c
00000390: a2fa 83bd d8d2 f1bc a277 253d 43b5 d13c
000003a0: 16f9 993a 6e93 e1bd d09a d73c f072 dbbd
000003b0: 6851 9dbd 553a 9abd c222 17be da96 2b3d
000003c0: db56 f9bb 97a6 d7bd 18e6 4d3d a4f0 dd3d
000003d0: 2373 e0ba 3957 8f3d 358b 9fbc 01ed 8f3c
000003e0: ae47 71bd 22f4 963d 66dd a23d a09e 19bc
000003f0: 68ee b7bc d556 c53c 3c08 a63d e32b ed3b

fc3.bias f4 [4]
-0.0050791116 -0.105658546 -0.044730317 0.0408441
00000000: ad6e a6bb 8263 d8bd 2337 37bd 254c 273d
