pose_classifier_1.pth (torch, 62295 bytes, 6 tensors)

fc1.weight f4 [128, 51]
0	0x3dae78d5	0.08519141
1	0xbc9f3b4d	-0.019437457
2	0xbdd7c75a	-0.1053607
3	0x3aad1e3f	0.0013207867
4	0x3d8b5e31	0.06805075
5	0xbdc05ee3	-0.09393098
6	0xbdec851d	-0.11548827
7	0x3b3a6373	0.0028440624
8	0xbc6dd864	-0.014516924
9	0xbdf2996f	-0.118456714
10	0x3db52937	0.08845752
11	0xbd337091	-0.043808524
12	0x3e0e9cba	0.13926974
13	0xbded8300	-0.11597252
14	0xbd6bcf1d	-0.057570565
15	0xbe058cfd	-0.13042064
16	0xbcb80b35	-0.022466281
17	0x3e0c899c	0.13724369
18	0xbdb798b1	-0.089646704
19	0xbb33d3f2	-0.0027439562
20	0x3dddbd69	0.10827143
21	0xbdb53162	-0.0884731
22	0x3dd210c0	0.10257101
23	0xbd9215df	-0.07133078
24	0x3cfc8f99	0.030830191
25	0xbdd634cf	-0.10459291
26	0x3be43c37	0.006965186
27	0x3da77a73	0.08177652
28	0xbbb46f1c	-0.0055064093
29	0x3dab1eb2	0.08355464
30	0x3e0cf577	0.13765512
31	0xbdc49cb7	-0.096002035
32	0x3d33b63c	0.043874964
33	0x3d0b25fe	0.03397178
34	0xbd9da28e	-0.076970205
35	0x3acb2919	0.0015499919
36	0x3ce608c2	0.028080348
37	0x3c8edc38	0.017438993
38	0xbe0494da	-0.12947407
39	0xbdbf1927	-0.09330969
40	0x3d8f0d2a	0.06984933
41	0x3b0977ea	0.0020976015
42	0xbd219d50	-0.039456666
43	0x3e13c9c4	0.14432436
44	0xbd04e380	-0.032443523
45	0xbc9111fb	-0.017708769
46	0x3e052088	0.13000691
47	0x3d3e6a42	0.046488054
48	0x3c6077e4	0.013700459
49	0x3dcf7403	0.10129549
50	0xbe060c92	-0.13090733
51	0xbd4d9a46	-0.050195955
52	0x3dbb1386	0.09134583
53	0xbd4a9333	-0.049456786
54	0x3d047b03	0.032343876
55	0x3dc23378	0.09482473
56	0x3da4c7c6	0.08045916
57	0x3dd7a241	0.10528994
58	0xbe0296bf	-0.12752818
59	0xbc303737	-0.010755352
60	0xbe01f63b	-0.12691586
61	0x3dd7165c	0.105023116
62	0x3dd2d45b	0.1029441
63	0x3da3d4e9	0.07999594
64	0xbc5c35f3	-0.013440597
65	0xbdb14bb8	-0.0865702
66	0xbdee65b4	-0.11640492
67	0xbdb67309	-0.0890866
68	0xbd848fe9	-0.06472761
69	0x3dec28ba	0.115312055
70	0x3df9a49f	0.12189602
71	0xbda31f6b	-0.07964977
72	0x3dbfce81	0.09365559
73	0x3c630a21	0.013857395
74	0xbde562ca	-0.11200483
75	0xbd25b26d	-0.040453363
76	0xbc888af3	-0.016667819
77	0x3c63b77c	0.013898727
78	0xbace4c68	-0.0015739324
79	0xbbd39098	-0.006456446
80	0xbda2938a	-0.07938297
81	0x3d4ee7ae	0.050513916
82	0xbd6eb5c9	-0.058278833
83	0x3d62ce4d	0.055372525
84	0xbdbd097d	-0.09230325
85	0xbe0d237d	-0.13783069
86	0x3d97826e	0.07397924
87	0xbd378638	-0.044805735
88	0xbdb036c0	-0.08604193
89	0xbdeda429	-0.11603577
90	0x3db22c8d	0.08699904
91	0xbd6f7592	-0.058461733
92	0x3dd50354	0.104010254
93	0xbdcb7c71	-0.09935845
94	0xbdafa3b7	-0.08576148
95	0x3dc25dc6	0.09490542
96	0x3c8b22c9	0.01698436
97	0x3c857d2c	0.016295038
98	0x3de7ecdc	0.11324474
99	0xbd38bcdf	-0.045101997
100	0xbdc461db	-0.09588977
101	0x3dc8a92a	0.097978905
102	0xbd59c614	-0.053167418
103	0xbb4ca573	-0.0031226545
104	0xbe302f12	-0.17205456
105	0x3d297814	0.04137428
106	0xbd6e6d05	-0.058209438
107	0xbd804446	-0.06263022
108	0x3c13a418	0.009011291
109	0xbd1150ae	-0.035477333
110	0x3dccdc5c	0.10002968
111	0x3dd0c89f	0.101945154
112	0xbdeb6f51	-0.11495841
113	0xbd2ea647	-0.042639043
114	0x3bda2d63	0.0066582425
115	0x3d56c9b2	0.052438445
116	0xbb8678da	-0.004103762
117	0x3c8c70ff	0.017143724
118	0xbe0ebbf2	-0.13938883
119	0x3df5727b	0.11984726
120	0xbca14f8f	-0.019691257
121	0xbd2ce3c4	-0.0422094
122	0x3d932fdb	0.07186862
123	0xbdd6fedd	-0.1049783
124	0x3d28e7f2	0.041236825
125	0xbce2d3de	-0.027688917
126	0xbe147a52	-0.14499786
127	0x3dbd801c	0.092529505
128	0xbe001728	-0.12508833
129	0xbdde8476	-0.10865109
130	0xbe047fb8	-0.12939346
131	0x3dbf56da	0.093427375
132	0xbd871eaa	-0.065976456
133	0x3d7ac25a	0.061220504
134	0xbdd050d0	-0.10171664
135	0x3d0c9f09	0.034331355
136	0xbe018edf	-0.12652157
137	0xbc366b20	-0.011133939
138	0xbc9e71b9	-0.019341337
139	0xbd5de868	-0.054176718
140	0x3dd2d445	0.102943935
141	0x3df15891	0.11784471
142	0x3dc24ed6	0.09487693
143	0x3e304d44	0.17216974
144	0x3d51d963	0.051232707
145	0x3dbd28b1	0.09236277
146	0xbd5c1a60	-0.05373609
147	0x3df07154	0.117403656
148	0x3d3d2df2	0.046186395
149	0x3e078869	0.1323563
150	0x3d82cc52	0.06386627
151	0x3dbf6275	0.09344951
152	0x3db3839a	0.087653354
153	0xbe0eca01	-0.13944246
154	0x3df311d7	0.11868637
155	0xbdafb334	-0.08579102
156	0xbddebd2f	-0.10875928
157	0x3cd29e98	0.025710389
158	0xbd593fdb	-0.053039413
159	0xbddb4a73	-0.107075594
160	0x3e090825	0.13382013
161	0xbe0f2c5f	-0.1398177
162	0x3dd28ab3	0.10280361
163	0xbda19be1	-0.0789106
164	0xbd4176dc	-0.047232494
165	0x3e013e8f	0.1262152
166	0xbca3685b	-0.019947222
167	0xbe04276a	-0.1290566
168	0xbdd7e7bf	-0.10542249
169	0xbe0341ce	-0.12818071
170	0x3db4c79c	0.08827135
171	0xba894331	-0.0010472295
172	0x3d851065	0.06497268
173	0x3da814e0	0.082071066
174	0x3db934ac	0.090432495
175	0xbd5cc46d	-0.053898264
176	0x3d59afd3	0.053146195
177	0x3d4c1e80	0.049833775
178	0xbd15f38f	-0.03660923
179	0xbdaec8bf	-0.08534383
180	0x3c98e00b	0.01866152
181	0x3dc70e3e	0.09719513
182	0xbda64a71	-0.08119667
183	0x3db823c2	0.08991195
184	0xbd81da7c	-0.06340501
185	0xbcacef0c	-0.02111008
186	0xbda5f2dd	-0.08102963
187	0xbdc025d4	-0.09382215
188	0x3bd2306d	0.006414464
189	0xbccc1c8a	-0.024915952
190	0xbdf6b80c	-0.12046823
191	0xbd77a45a	-0.060459472
192	0xbd898934	-0.067156225
193	0x3dfb149f	0.122597925
194	0x3d5fcaa4	0.054636613
195	0xbd5a82e6	-0.05334749
196	0xbdf372a1	-0.11887098
197	0xbcfb9f2a	-0.030715544
198	0xbdc7c838	-0.097549856
199	0x3dd25b99	0.10271377
200	0x3b8aa7d7	0.004231434
201	0xbe01ca27	-0.12674771
202	0x3d8f55a2	0.06998755
203	0xbe09075f	-0.13381718
204	0x3df710c8	0.12063748
205	0x3c8a6778	0.01689504
206	0x3da5ef3d	0.08102272
207	0x3d72fdb1	0.05932397
208	0xbdc792f5	-0.09744827
209	0x3d6280c1	0.05529857
210	0xbd2cc69a	-0.04218159
211	0xbe1e25b9	-0.15444078
212	0xbce7c958	-0.02829425
213	0xbde138b0	-0.109971404
214	0xbd21d4f3	-0.039509725
215	0x3dbe2127	0.09283667
216	0xbd959197	-0.0730316
217	0xbe055df5	-0.13024123
218	0x3dcde3c5	0.10053209
219	0xbd8ecc1c	-0.069725245
220	0xbd24f949	-0.0402768
221	0xbda66d1f	-0.08126282
222	0x3c0ccd59	0.008593881
223	0x3d65bbe1	0.05608738
224	0xbdf9671e	-0.12177871
225	0x3d93a179	0.07208533
226	0x3c335a5c	0.010946836
227	0xbd8ba00f	-0.06817638
228	0xbda74ade	-0.08168577
229	0x3b856316	0.00407065
230	0xbde720f2	-0.11285581
231	0x3da1e327	0.07904654
232	0xbdbd28d0	-0.092363
233	0xbdbc6645	-0.09199194
234	0x3d8ddc8d	0.06926832
235	0xbd0f40ba	-0.034973837
236	0xbe0a16ac	-0.13485211
237	0x3d3f4e76	0.046705686
238	0xbdac21e6	-0.08404903
239	0x3d725c62	0.059170134
240	0xbdd893aa	-0.1057504
241	0xbc5ceb25	-0.013483797
242	0x3df16c42	0.11788227
243	0xbd9b9dac	-0.07598433
244	0x3dc18f11	0.09451116
245	0x3d544055	0.051819164
246	0x3ccb5e59	0.024825262
247	0xbe0bac0f	-0.13639854
248	0x3defca96	0.11708562
249	0xbd04f94f	-0.03246432
250	0x3dc0d821	0.09416223
251	0xbd72d31b	-0.059283357
252	0x3d9a3a23	0.0753062
253	0xbcf708a9	-0.030155497
254	0xbda86888	-0.08223063
255	0x3d7206dc	0.059088573

fc1.bias f4 [128]
0	0xbe107465	-0.14106901
1	0x3c087666	0.00832901
2	0xbc27dc4c	-0.010245394
3	0xbe0c4014	-0.13696319
4	0xbd59210b	-0.053010028
5	0x3e0901cb	0.1337959
6	0xbd70d477	-0.058796372
7	0xbd80b21c	-0.06283972
8	0xbdab7ffd	-0.08374021
9	0xbe227c35	-0.15867694
10	0xbc829430	-0.015939802
11	0x3dd5646a	0.10419543
12	0x3d71c49f	0.059025403
13	0x3de4fa7a	0.11180587
14	0xbdd5723e	-0.104221806
15	0xbdd37f24	-0.103269845
16	0xbd013261	-0.031542186
17	0xbd85f7e4	-0.06541422
18	0x3df39530	0.1189369
19	0x3dd9dfcd	0.1063839
20	0x3c5eaf01	0.013591529
21	0x3ceac0fa	0.028656472
22	0x3dec3486	0.115334556
23	0xbdbe5b6e	-0.092947826
24	0x3de5407e	0.111939415
25	0xbd4c336f	-0.04985374
26	0x3d38ccf8	0.04511735
27	0x3d150227	0.036379006
28	0x3dcddead	0.10052238
29	0xbd03c0e6	-0.032166384
30	0xbbb96a8a	-0.0056584524
31	0x3d5ec9a9	0.054391537
32	0xbd8438e1	-0.06456161
33	0xbe213d7c	-0.1574611
34	0xbe00708c	-0.12542933
35	0x3e21a4ae	0.15785477
36	0x3d8f2e51	0.06991256
37	0xbdc866b3	-0.09785213
38	0x3da3b6cf	0.07993852
39	0xbca919fd	-0.020642275
40	0xbdb52786	-0.08845429
41	0x3dff579b	0.12467881
42	0xbc030ed9	-0.007999145
43	0xbc8465bb	-0.01616179
44	0x3dd320e2	0.10309006
45	0xbcf10ddb	-0.029425552
46	0x3d2c968e	0.042135768
47	0xbc9e85c2	-0.01935089
48	0xbc10f546	-0.00884754
49	0x3c49cfbd	0.012317595
50	0x3ba2e2e4	0.004970895
51	0x3dfc3c93	0.12316241
52	0xbd55a33f	-0.052157637
53	0x3dc17920	0.09446931
54	0xbe096941	-0.13419057
55	0x3cbe68ae	0.023243275
56	0x3d242b1e	0.040080182
57	0xbdccc087	-0.09997659
58	0x3d7a33da	0.061084606
59	0x3d79dcdc	0.061001644
60	0x3e01b44e	0.12666437
61	0x3dc9d588	0.09855181
62	0xbceb6fe5	-0.028739879
63	0x3d8ded2f	0.06930005
64	0xbb076374	-0.0020658644
65	0x3d4a1e47	0.04934528
66	0x3e09c6ee	0.13454792
67	0x3d50d62d	0.050985504
68	0xbdf2038b	-0.11817082
69	0x3af598bf	0.0018737538
70	0x3df50e49	0.11965615
71	0xbdce4d61	-0.100733526
72	0xbca5ce72	-0.020240042
73	0x3d356872	0.04428906
74	0xbdee5103	-0.116365455
75	0xbdb3b0c0	-0.08773947
76	0x3b5f24d9	0.0034049063
77	0x3d9fa8a8	0.077958405
78	0xbce60b00	-0.028081417
79	0x3d9e8838	0.077408254
80	0x3d1ec07c	0.038757786
81	0xbc76b058	-0.015056692
82	0xbdc0ceae	-0.09414421
83	0xbaef6250	-0.0018263552
84	0x3dd57306	0.104223296
85	0xbd1ee647	-0.03879383
86	0xbdc5eeec	-0.09664711
87	0xbd348170	-0.044068754
88	0xbda33b70	-0.07970321
89	0xbd823ee5	-0.063596524
90	0xbd921b85	-0.07134155
91	0x3e0e7aa9	0.13913979
92	0xbdcb70cb	-0.09933623
93	0x3d278fe9	0.040908728
94	0xbe0d5ecb	-0.13805692
95	0xbde1699a	-0.1100647
96	0x3dfe9a04	0.1243172
97	0x3de30ea1	0.110867746
98	0xbe01d14f	-0.12677501
99	0x3debc524	0.11512211
100	0x3e1dc978	0.15408885
101	0xbe0bb053	-0.13641481
102	0x3e058e13	0.13042478
103	0xbd894f02	-0.06704523
104	0xbd993376	-0.074805185
105	0xbe168f68	-0.14703143
106	0x3e03de66	0.12877807
107	0x3dbd28f8	0.0923633
108	0x3d4712f8	0.048602074
109	0x3d94af78	0.072600305
110	0x3db8e3e2	0.0902784
111	0xbd4ebf9b	-0.050475698
112	0x3de0bbdd	0.10973332
113	0x3bccd65f	0.006251141
114	0x3dd6082d	0.10450778
115	0xbd314622	-0.043279774
116	0x3d5ea8cc	0.054360196
117	0x3e06692c	0.13126057
118	0xbce746d0	-0.028232008
119	0x3d8a22f9	0.06744952
120	0x3dbc8dd2	0.092067376
121	0xbe0a8aea	-0.13529554
122	0xbdaa5d4f	-0.083185785
123	0x3dab8cd9	0.08376474
124	0x3cdbee6a	0.026847083
125	0x3da9218d	0.082583524
126	0xbd90bfa8	-0.070678055
127	0xbcf9f56a	-0.03051253

fc2.weight f4 [64, 128]
0	0xbd1a1ccd	-0.037625123
1	0xbdac91be	-0.084262356
2	0x3ca881dd	0.020569736
3	0xbc1c9763	-0.009557578
4	0x3bb3ca4f	0.0054867635
5	0x3d82e2a5	0.06390885
6	0xbdb3141a	-0.087440684
7	0x39897348	0.00026216567
8	0xbd4c53e0	-0.049884677
9	0x3d5f394b	0.054498
10	0xbd20e42f	-0.039280113
11	0xbd0b7118	-0.0340434
12	0x3d69a827	0.05704513
13	0x3cc6872e	0.02423438
14	0x3da2020d	0.079105474
15	0xbc94fe45	-0.018187651
16	0xbda16fb9	-0.078826375
17	0x3cef4bdd	0.02921098
18	0xbdacb942	-0.084337726
19	0x3c4c96e9	0.012487152
20	0xba5227a3	-0.00080167706
21	0xbd2f9676	-0.0428681
22	0xbd8280c5	-0.06372217
23	0xbd94e545	-0.07270292
24	0x3d420922	0.04737199
25	0x3da8d9ff	0.082447045
26	0xbdb9d2b1	-0.09073389
27	0xbcc7308a	-0.024315137
28	0x3b87e410	0.00414706
29	0xbd7c44d8	-0.061589092
30	0xbb9d65ba	-0.0048033865
31	0xbcda5310	-0.026650935
32	0x3cc6db4c	0.02427449
33	0xbc43bcc6	-0.011946863
34	0x3d8aa0e5	0.067689694
35	0x3e16de19	0.14733161
36	0x3d860bb3	0.065452
37	0xbd3378dd	-0.043816436
38	0x3cdadb76	0.026715975
39	0x3cf84b78	0.030309424
40	0x3caf65c0	0.021410823
41	0xbd919c76	-0.07109921
42	0xbd61214d	-0.0549634
43	0x3cfcbba7	0.030851198
44	0xbd71751d	-0.05894958
45	0x3d13293f	0.035928007
46	0x3d31b6a9	0.04338709
47	0xbbdf75ea	-0.0068194764
48	0x3da3e5fa	0.08002849
49	0x3d86b08a	0.06576641
50	0xbd8ae6b2	-0.06782283
51	0x3cbecb22	0.02329022
52	0x3d36d8bb	0.044640284
53	0xbdae8bfd	-0.085227944
54	0xbcae6e2b	-0.021292767
55	0x3d5b01c5	0.053468484
56	0x3cffc72a	0.031222899
57	0xbcbb3234	-0.022851087
58	0x3d09c6a2	0.033636697
59	0x3ca9e74a	0.02074017
60	0xbd1bca90	-0.038034976
61	0x3d0f35c0	0.03496337
62	0xbc3b3620	-0.011426479
63	0xbdaec8a6	-0.085343644
64	0xbcccd5fa	-0.025004376
65	0x3d18e535	0.037327964
66	0xbd0291ee	-0.03187745
67	0x3c9177e3	0.017757362
68	0xbd377610	-0.044790328
69	0x3d060812	0.03272254
70	0xbd921008	-0.07131964
71	0x3da9d9f1	0.08293522
72	0xbd0a02f4	-0.033694223
73	0x3d94b306	0.072607085
74	0x3c7878e9	0.015165546
75	0xbbd27c3d	-0.0064235018
76	0xbbd90926	-0.006623405
77	0xbd251fc3	-0.040313493
78	0x3dafbd7a	0.08581062
79	0xbd03c1c4	-0.03216721
80	0xbd56cee6	-0.052443407
81	0x3c5b995f	0.013403266
82	0x3b0a5984	0.0021110484
83	0xbc5ae3b2	-0.013359951
84	0x3dbcbb4f	0.09215414
85	0x3d4b4ec0	0.04963565
86	0x3be13156	0.0068723364
87	0x3ce92fd2	0.028465185
88	0x3d42a0a2	0.047516473
89	0xbd99af74	-0.07504168
90	0xbb15d360	-0.0022861585
91	0xba406628	-0.0007339441
92	0xbb4084a2	-0.002937593
93	0xbc29cfff	-0.010364532
94	0xbd86f3f7	-0.06589501
95	0x3d312e51	0.04325706
96	0x3dafadfb	0.08578106
97	0xbda3d837	-0.08000224
98	0x3c5902f8	0.013245337
99	0x3daea376	0.085272714
100	0xbd375e6c	-0.044767782
101	0x3d341105	0.043961544
102	0x3c89f862	0.016842071
103	0xbcccec1b	-0.025014928
104	0xbab8e9cb	-0.0014107762
105	0x3d38e578	0.045140713
106	0x3be942a2	0.007118539
107	0x3d99ebf9	0.07515711
108	0x3d2052e3	0.039141547
109	0xbd4ce356	-0.050021492
110	0x3d0885b7	0.033330645
111	0x3d0f20c3	0.034943353
112	0xbd82471f	-0.063612215
113	0x3d7016db	0.058615547
114	0x3d42d802	0.047569282
115	0x3d869b69	0.06572611
116	0xbd21a729	-0.039466057
117	0x3d51f352	0.05125744
118	0xbda752d2	-0.081700936
119	0x3cb84af4	0.022496678
120	0x3d30620d	0.04306226
121	0xbccc36ee	-0.024928536
122	0xbd9c42d6	-0.076299354
123	0xbd3a3051	-0.045456234
124	0x3c9d3d5f	0.019194303
125	0xbd53711d	-0.051621545
126	0x3c7b3f1d	0.015334872
127	0x3d7da5fe	0.06192588
128	0x3c5b3a35	0.013380577
129	0x3d7c22d4	0.061556652
130	0xbbfe62c2	-0.0077632377
131	0xbccc274d	-0.024921084
132	0x3c25c359	0.010117375
133	0xbce8be3c	-0.028411023
134	0xbbfd5486	-0.0077310232
135	0xbcd256a6	-0.025676083
136	0xbd8e1196	-0.06936948
137	0xbd6f0950	-0.05835849
138	0x3db41584	0.08793166
139	0x3d13ff6d	0.036132265
140	0xbd883589	-0.06650836
141	0xbd67948d	-0.056538153
142	0xbd3f1533	-0.046651077
143	0xbd3c0c2f	-0.045910057
144	0xbd9fc2fd	-0.07800863
145	0xbcae5b83	-0.02128387
146	0xbd082af9	-0.033244107
147	0xbd857a6e	-0.06517492
148	0xbd57a18c	-0.052644297
149	0x3d5a357c	0.053273663
150	0x3d75bf52	0.05999691
151	0x3d3d8548	0.046269685
152	0x3c50c4fd	0.012742278
153	0xbd96b78f	-0.0735923
154	0x3cb83de6	0.022490453
155	0x3d3de6da	0.046362735
156	0x3d067c00	0.0328331
157	0xbd3a3e1c	-0.04546939
158	0x3d5fe454	0.05466111
159	0x3d065d7c	0.032803997
160	0xbb50c3ea	-0.0031855055
161	0x3d454a9c	0.048166856
162	0xbd054691	-0.032538
163	0xbd05a83b	-0.03263114
164	0x3d7b4e56	0.061354004
165	0xbda4c63e	-0.08045624
166	0xbdc57db8	-0.096431196
167	0xbb6a4459	-0.0035746305
168	0xbd1b2451	-0.03787643
169	0x3db8f503	0.09031107
170	0xbceef0e0	-0.029167593
171	0x3a319fea	0.0006775843
172	0x3da4c1d3	0.080447815
173	0xbc694c18	-0.014239334
174	0xbd2bf510	-0.041981757
175	0xbbf9d5ca	-0.0076243626
176	0x3d1e1f9a	0.038604356
177	0x3d42905f	0.047500964
178	0xbd6230b2	-0.05522222
179	0x3d56ffd0	0.052490056
180	0x3d3f3074	0.046677068
181	0x3d2bd16f	0.04194778
182	0x3ca2e00e	0.019882228
183	0x3caaefe9	0.020866351
184	0x3d9a16fd	0.07523916
185	0xbc241a6e	-0.010016067
186	0xbd0335d0	-0.03203374
187	0xbda54c5f	-0.08071207
188	0xbd9bdeeb	-0.076108776
189	0x3d9187fe	0.071060166
190	0x3cde7f1c	0.02716022
191	0xbd952c32	-0.0728382
192	0x3d7cfbdb	0.061763626
193	0xbd57dcf9	-0.05270097
194	0xbd490a3f	-0.049082037
195	0xbcb8c3c0	-0.022554278
196	0x3b90ad52	0.0044151926
197	0xbcac9853	-0.021068728
198	0x3cec343d	0.028833503
199	0xbd7b26c4	-0.061316267
200	0x3d4d4fcf	0.05012494
201	0x3d85fca3	0.06542327
202	0xbd7f8712	-0.062384672
203	0x3d463a3e	0.048395388
204	0x3bcf282b	0.006321927
205	0x3d898577	0.067149095
206	0x3d40925a	0.04701457
207	0xbd97fa5b	-0.074207984
208	0x3d942c5e	0.07235025
209	0xbd0149de	-0.031564586
210	0xbcbf0cf5	-0.023321608
211	0xbda08e8a	-0.07839687
212	0xbd9cc0fc	-0.07653996
213	0xbd48fec2	-0.04907108
214	0xbd4fbc16	-0.050716482
215	0x3d901b07	0.07036405
216	0xbcd39908	-0.025829807
217	0xbd4e21c1	-0.05032516
218	0xbc6d3881	-0.014478804
219	0x3d2e0c91	0.042492453
220	0x3d1d59b5	0.03841563
221	0x3d3915c2	0.045186765
222	0x3dadb22f	0.084812514
223	0x3d9a93ab	0.07547697
224	0xbc87b652	-0.01656643
225	0x3d49b124	0.0492412
226	0x3dadc8a0	0.08485532
227	0xbd3ec4dc	-0.04657446
228	0xbd1cc7a0	-0.038276315
229	0x3d112637	0.035436835
230	0x3d66bea9	0.05633417
231	0xbb161591	-0.0022901038
232	0xbcd767f9	-0.026294695
233	0xbd209eca	-0.039213933
234	0x3d0b5b51	0.034022633
235	0xbd152dee	-0.036420755
236	0xbd93d269	-0.07217867
237	0x3bd306b4	0.006440008
238	0xbbf6e7a8	-0.00753494
239	0xbd9a57a5	-0.07536248
240	0x3cc0361c	0.023463301
241	0xbd8f5f0d	-0.070005514
242	0x3d85fe71	0.065426715
243	0xbdafc5dc	-0.085826606
244	0x3dab144f	0.08353483
245	0x3d6bb2c2	0.057543524
246	0xbd844814	-0.0645906
247	0x3d34dbb3	0.044154834
248	0x3d018a94	0.0316263
249	0x3d7ad158	0.061234802
250	0xbd610e45	-0.05494525
251	0x3bcf4523	0.0063253804
252	0x3d2dc16c	0.04242079
253	0xbc9b359f	-0.018946467
254	0xbdde96b4	-0.10868588
255	0x3d5011bf	0.050798174

fc2.bias f4 [64]
0	0xbc5c60ca	-0.013450811
1	0x3cc685de	0.024233755
2	0xbd2dd033	-0.042434882
3	0xbc578013	-0.013153094
4	0xbcd61a58	-0.026135609
5	0xbd2aaa4f	-0.041666325
6	0xbc9e953b	-0.019358268
7	0xbdc8ee61	-0.09811092
8	0xbd0da208	-0.034578353
9	0xbd60932d	-0.054827858
10	0xb97d0b27	-0.00024132115
11	0x3d106f3b	0.035262328
12	0x3d8944e8	0.06702596
13	0x3ba09421	0.004900471
14	0xbd3c0e5a	-0.045912124
15	0xbc5d0259	-0.013489329
16	0xbbd8d694	-0.0066173766
17	0xbdb074b8	-0.08616012
18	0x3ba0b626	0.0049045263
19	0xbdc787e6	-0.097427174
20	0xbdca86b1	-0.098889716
21	0x3d8c213c	0.068422765
22	0x3d7638eb	0.060112875
23	0x3d095336	0.03352662
24	0x3cf5c24e	0.029999878
25	0xbd0da8d5	-0.03458484
26	0x3d7283cb	0.05920772
27	0x3d468784	0.04846908
28	0x3d4e7e2a	0.05041329
29	0xbce21ff5	-0.027603129
30	0xbd808cc3	-0.06276848
31	0x3d48b133	0.048997115
32	0xbd26c6e0	-0.040717006
33	0xbd700102	-0.05859471
34	0x3d56f910	0.05248362
35	0x3d9809cd	0.07423744
36	0xbd98368c	-0.07432279
37	0x3c4ad551	0.01237996
38	0xbd58da5c	-0.05294262
39	0xbb3833d1	-0.0028107057
40	0xbc2b3cf3	-0.010451543
41	0x3cc79850	0.02436462
42	0xbc0452ff	-0.008076428
43	0xbd31ba6e	-0.043390684
44	0xbd89f0b9	-0.06735367
45	0xbd1f8dd4	-0.038953617
46	0xbd8fb4f5	-0.07016937
47	0xbcfce88d	-0.030872608
48	0x3d6b1156	0.05738958
49	0xbc8f81e6	-0.017517995
50	0x3caa1d72	0.020765994
51	0x3c41d8d2	0.011831479
52	0xbd941ff5	-0.07232658
53	0xbd83c2bc	-0.06433627
54	0x3dc3382d	0.09532199
55	0xbd8a54f4	-0.06754485
56	0xbd9c67e0	-0.07637
57	0xbcf727c9	-0.030170338
58	0xbc03428f	-0.008011474
59	0xbd68ae05	-0.056806583
60	0xbcc24431	-0.023714157
61	0x3d755a81	0.059900764
62	0xbce150ec	-0.027504407
63	0x3da450cd	0.08023224

fc3.weight f4 [3, 64]
0	0x3d44d99e	0.0480591
1	0xbd3ff277	-0.046862092
2	0x3dca5c62	0.09880902
3	0x3d9ea2e8	0.07745916
4	0xbd915f9f	-0.070983164
5	0xbe0e87cb	-0.13918988
6	0x3dc5e6a9	0.096631356
7	0xbd382e08	-0.044965774
8	0xbb515b81	-0.003194541
9	0xbbbd97df	-0.0057859267
10	0xbdfd9511	-0.12381948
11	0xbd6b1771	-0.057395402
12	0x3d9414fa	0.072305635
13	0xbcbe302a	-0.023216326
14	0xbd3b12bf	-0.045672175
15	0xbd80d0aa	-0.062897995
16	0xbddd6478	-0.108101785
17	0xbde3e23b	-0.111271344
18	0xbe01af50	-0.12664533
19	0x3baac716	0.005211721
20	0x3d0d9a8e	0.034571223
21	0xbded9f7f	-0.11602687
22	0x3ad53171	0.0016265345
23	0xbd2a4749	-0.04157189
24	0x3ddaf725	0.1069167
25	0x3c8a658d	0.016894126
26	0x3c8a130a	0.016854782
27	0xbdf7f654	-0.1210753
28	0xbd91d72c	-0.07121119
29	0xbd923e92	-0.071408406
30	0xbda16927	-0.07881384
31	0xbd4cc452	-0.049991913
32	0xbcf255d1	-0.029581936
33	0xbdcdb66a	-0.10044558
34	0xbd1b71a9	-0.03795019
35	0xbd819703	-0.06327631
36	0x3dabd6a5	0.083905496
37	0x3de6b471	0.11264885
38	0x3d74eed3	0.059798073
39	0x3c87694c	0.016529702
40	0xbcfd8164	-0.030945487
41	0x3d32e323	0.043673646
42	0xbdba9238	-0.0910992
43	0xbe08afb0	-0.1334827
44	0x3dadf866	0.08494644
45	0xbcacd76c	-0.021098815
46	0xbdf824c0	-0.121163845
47	0xbd2c9e92	-0.042143412
48	0x3d7ed3cf	0.062213715
49	0xbcb0ba2d	-0.02157315
50	0xbd6d9c98	-0.058010668
51	0xbd9ce056	-0.07659976
52	0xbd9c33fe	-0.07627104
53	0xbbd79dc0	-0.0065800846
54	0x3e236ff8	0.15960681
55	0x3d166725	0.03671946
56	0xbdaf65c0	-0.08564329
57	0xbc4d3beb	-0.012526493
58	0x3dd702db	0.104985915
59	0x3cea9d4f	0.028639464
60	0xbddbc845	-0.10731558
61	0x3dc5c645	0.096569575
62	0x3bb07e74	0.005386168
63	0xbda86b4b	-0.082235895
64	0xbd3e9675	-0.046530206
65	0x3c9aa946	0.018879544
66	0x3d454166	0.048158072
67	0x3df9269e	0.12165569
68	0xbdaaf539	-0.08347554
69	0x3d2e4c8c	0.04255347
70	0xbd887b8b	-0.06664189
71	0x3cd41a74	0.02589152
72	0x3dd04307	0.101690345
73	0xbccf7f94	-0.025329389
74	0x3d2b8368	0.041873366
75	0xbc90c837	-0.017673595
76	0x3d99aeaf	0.075040214
77	0x3da40664	0.080090314
78	0x3cad1daf	0.021132318
79	0xbde6c6c2	-0.11268379
80	0xbc6d5e77	-0.014487854
81	0x3dbe2941	0.09285212
82	0x3df62937	0.1201958
83	0x3c5297c4	0.012853567
84	0x3ce5bf89	0.028045433
85	0xbdeb6adb	-0.114949904
86	0xbdc6138f	-0.09671699
87	0xbd9d4f8e	-0.076811895
88	0xbd6e2ab7	-0.058146205
89	0x3b629920	0.0034576133
90	0xbcf5f168	-0.030022338
91	0xbdee1aec	-0.11626229
92	0xbd763924	-0.060113087
93	0x3db3c43b	0.08777662
94	0x3c91b368	0.017785743
95	0xbd155688	-0.036459476
96	0x3da2100f	0.07913219
97	0xbd90512e	-0.07046734
98	0x3d64e78e	0.05588489
99	0xbe08a083	-0.1334248
100	0x3dbf795b	0.093493186
101	0xbd2c70cf	-0.04209977
102	0xbd2cbffa	-0.04217527
103	0xbd1f5ebb	-0.0389087
104	0xbd9c36ab	-0.076276146
105	0x3da7a387	0.08185487
106	0xbd8f8dfb	-0.070095025
107	0xbdc5a774	-0.0965108
108	0x3da7cae1	0.08192993
109	0x3cfb8e05	0.030707369
110	0xbdcd609e	-0.10028194
111	0x3da40647	0.0800901
112	0xbdc8c14e	-0.09802495
113	0x3ca08497	0.019594474
114	0x3b2d6cc0	0.0026462525
115	0x3ddfd2a2	0.10928847
116	0x3dd5204a	0.10406549
117	0xbded5492	-0.11588396
118	0x3d0c5104	0.03425695
119	0xbd7d0c59	-0.061779354
120	0xbd76cf19	-0.060256097
121	0xbcf71557	-0.030161543
122	0x3d47a57f	0.048741814
123	0xbce9748d	-0.028497959
124	0xbd8fbeb5	-0.07018796
125	0x3db50dd7	0.0884053
126	0x3db5e9cc	0.08882484
127	0xbe30663c	-0.172265
128	0xbdfc1e8e	-0.12310515
129	0x3d6a5d8c	0.05721812
130	0xbd187e78	-0.037229985
131	0x3cfe72bb	0.031060567
132	0x3d2f7807	0.042839076
133	0x3d3a72b7	0.045519557
134	0x3db46d6a	0.088099316
135	0xbdb57eb8	-0.0886206
136	0xbd7f9f71	-0.062407915
137	0xbda55d25	-0.080744065
138	0xbd4ec54a	-0.05048112
139	0xbd404dfe	-0.04694938
140	0xbcc144b2	-0.023592327
141	0xbdd3f5bf	-0.10349607
142	0x3dd8dc83	0.10588934
143	0x3db05c00	0.086112976
144	0xbc2e631b	-0.010643746
145	0xbd80d538	-0.06290668
146	0xbdf1f501	-0.11814309
147	0x3dcb023e	0.09912537
148	0xbd5c55df	-0.05379283
149	0xbd2947da	-0.04132829
150	0x3cb1b37c	0.02169203
151	0xbd89ec3e	-0.06734513
152	0x3dc11d35	0.09429399
153	0xbd29e7bc	-0.041480765
154	0xbd50972c	-0.05092542
155	0x3e0f51ff	0.13996123
156	0x3d9b98ca	0.075975016
157	0xbdb8eba8	-0.09029323
158	0x3d00bce9	0.03143016
159	0x3c6c6674	0.014428724
160	0x3da445ae	0.08021103
161	0xbdf24a73	-0.11830606
162	0xbddb74fa	-0.10715671
163	0x3d222034	0.039581493
164	0x3d1b7863	0.037956607
165	0xbd854cf0	-0.06508815
166	0x3d0833cd	0.033252526
167	0xbd487435	-0.04893895
168	0xbdd37974	-0.103259
169	0xbd598fc1	-0.05311561
170	0x3d1a50cc	0.03767471
171	0xbd794c1b	-0.060863595
172	0xbd3fae9d	-0.046797384
173	0x3d96953d	0.07352684
174	0xbd08bf00	-0.033385277
175	0x3d1c08df	0.038094398
176	0xbcda30b2	-0.026634548
177	0xbda868df	-0.082231276
178	0x3c058640	0.0081496835
179	0x3dbe8aba	0.09303804
180	0xbdd2dbf7	-0.10295861
181	0x3cceca86	0.025243055
182	0xbd57c0fe	-0.052674286
183	0xbda49464	-0.08036116
184	0xbdc5eaf0	-0.096639514
185	0x3d566cc5	0.052349824
186	0xbda125e4	-0.07868555
187	0x3e07d73f	0.13265704
188	0xbd8b569c	-0.06803629
189	0xbd8a0951	-0.06740058
190	0x3ddd04ca	0.10791929
191	0x3d0883ff	0.033329006

fc3.bias f4 [3]
0	0xbdb1eaa1	-0.0868733
1	0x3d1a81c5	0.037721414
2	0xbd5808ee	-0.05274289
