model_src/pose_classifier.pth (torch, 62295 bytes, 6 tensors)

fc1.weight f4 [128, 51]
00000000: 783a 063e 4f19 efbd 1404 ffbd 35b8 22bd
00000010: 0667 c2bd 9a48 1abd 284b e83d b235 3ebd
00000020: 1df6 a53d 0491 cebc bbbc febd a2a8 cbbb
00000030: 3573 3e3b dcf4 143e 4a47 293e c9ad 253d
00000040: fc63 d33d 9d6f a6bd 1856 b93d 0e2e 43bd
00000050: 28e5 df3d 3cfb a4bd 0165 dabd 7d4b 43bd
00000060: ef64 723c 0851 ca3d 5c1d 70bd a5a4 08bc
00000070: 29c6 d0bd e36f 823d 1181 d03d f3e2 1cbd
00000080: 3f7a 603d 8535 adbd b6de ffbd 4235 cbbc
00000090: e0ac d5bd ae52 643d 6a67 37bd e519 c03d
000000a0: 576e 183e be40 c53d 4547 b0bd d85e ae3d
000000b0: 9f89 51bc 405f fabd eb9b 6c3d b1f4 013e
000000c0: 38ef 7cbb 2939 deb9 0289 263e 1e3e 5cbd
000000d0: 8734 aebd 5be0 a93d 287f 053c e6b6 b73d
000000e0: 2d6b ff3d 9e5c 1abe 8b6b f3bd 5579 203e
000000f0: 4028 41bd e072 ab3d 0dcc 5b3d aba6 55bc
00000100: ff19 883d 4ade 3e3c 9704 bcbd 25e2 2abe
00000110: d59d fdbd 180c 103d 80a2 7e3d 7f54 fabc
00000120: 90a1 94bd 8d91 e33d 5efc 8f3d 5099 953c
00000130: 8ef2 10bd 7b1b a7bd 87b2 3cbc 5e59 36bd
00000140: 4766 9dbd 3156 ebbc dae2 fa3d 547a f6ba
00000150: 98ae 17bd a6d9 9d3c 409f 043e 2b08 af3d
00000160: 916c 943d b32c f23d 0c9d 67bb 3a51 c1bd
00000170: 2c13 033e 3992 72bd 99ae c13d c75b a1bd
00000180: 8e88 a83c 79dc 83bd c348 8dbd a167 f43d
00000190: c706 d7bc af34 303e 50b7 fdbc 1980 f03d
000001a0: 68e2 39bd f061 48bd f751 4a3d 12b2 cfbc
000001b0: 4d9e 88bc 9bf9 0cbe 2cc0 8ebc ef2f cdbd
000001c0: e1f7 99bc dc53 833d 9fd4 e93d d236 763d
000001d0: 48a3 a4bd 2197 a7bd 9db4 59bd d119 a13d
000001e0: 7f95 bfbd 29b1 d43d 3706 01bd 23d1 0abe
000001f0: 8b4a d9bd d531 e1bd e7dd c0bc dc01 4d3d
00000200: cede a3bd 1cef 993d 02a8 9dbd cd49 0c3e
00000210: 8b3c 33bd a74b 653d f885 6bbd c440 cf3d
00000220: e03b e73d 9e66 9fbc 7c75 943c 5aca 0bbd
00000230: ef25 373d e57a 953d 9308 373d d1d0 42be
00000240: bed5 0d3e 7d77 f93d c6e6 cabd 4143 a8bd
00000250: e59c 583d 9028 473c 6671 adbb 89e5 97bd
00000260: b614 c63c a0af dbbc 2b44 303d 26d3 cabd
00000270: 988b 093e 57fd cebd 065d 4cbd 81e0 d53d
00000280: 4afd 07be b87d 033d 8b86 28bd 3edf c13d
00000290: 2d36 ea3b 748c 2abd 984d 063e f13f 90bc
000002a0: a19b 43bd 86ec 0a3c c800 dc3d 1b3c 20bd
000002b0: 7205 48ba 394a c8bd ef1d d23d 8396 423d
000002c0: 2d72 073d 09b9 a3bd b688 f9bd 41b8 abbb
000002d0: bd44 103d 998e deba 61de 12bd bf0c 8c3d
000002e0: a4bf 0f3d 978b debd ea7a 5cbd 0702 5b3c
000002f0: 7013 1f3c 430a 0ebe 17c2 e6bd f110 dabd
00000300: ce7f c1bd 5f5e f23d 35a5 f9bc 2271 763d
00000310: 52c6 32bd 9bac 5c3d 0a64 083d 1376 ecbd
00000320: 59bf f6bd 4305 9abd 4bb1 42bb 8c66 523d
00000330: b3a4 9fbd 223f 09bd eec9 bebd 83d6 20bd
00000340: f7e9 a33d 559b 07be 1c13 eb3d d9de f23d
00000350: fa08 703c 81bf d23d 7e0d c1bd 2c36 373d
00000360: 0051 0a3d 98e3 e73d a7b5 54bd 06bd fabd
00000370: 032b b4bd 5ac4 40bd f881 6dbd 12eb e6bd
00000380: 0350 bb3c 2f80 ae3d 82dc de3b e996 853d
00000390: 467d 0f3c 2a1d b13d 004f fcbd c344 bfbc
000003a0: 1798 ab3d 5865 f4bd 99f2 bc3d ef74 013e
000003b0: d90b b33d a28a 94bd 1c13 123d 3e14 c7bc
000003c0: 320a 85bc a06f dbbd f97c d4bc ffb1 ec3d
000003d0: d40c ce3c 8bce 133d c754 09bd bc49 7f3d
000003e0: 1965 2a3d f3bf 083e b4f0 3dbc a311 ca3d
000003f0: 4d00 aebc f0aa 8bbd 2650 c6bb ad53 14be
0.13108242 -0.11674749 -0.1245195 -0.039726455 -0.094923064 -0.037666894 0.1134246 -0.046437927
0.08103583 -0.025215633 -0.12438341 -0.006215171 0.0029060368 0.14546531 0.16531101 0.040448938
0.10321805 -0.08126757 0.09049624 -0.047651343 0.1093238 -0.08055732 -0.10663796 -0.047679413
0.014794572 0.09878737 -0.05862175 -0.008340036 -0.10194046 0.06368997 0.101808675 -0.038302373
0.054804083 -0.08457474 -0.124936506 -0.024805669 -0.10433364 0.055742912 -0.044776358 0.09379939
0.14885841 0.09631489 -0.086073436 0.08514184 -0.012789159 -0.12225199 0.057765882 0.12690999
-0.0038594734 -0.00042385727 0.16263202 -0.053770177 -0.085061125 0.082947455 0.008147992 0.08970432
0.12471614 -0.15074393 -0.118857466 0.15671284 -0.047157526 0.0837152 0.053661395 -0.013040225
0.06645583 0.0116496775 -0.09180563 -0.1668783 -0.1238362 0.035167783 0.06216669 -0.030557869
-0.07257378 0.11111746 0.07030557 0.018261582 -0.03538757 -0.08159538 -0.011517174 -0.04451882
-0.076855235 -0.028727623 0.122503 -0.0018804767 -0.03703174 0.019268822 0.12951374 0.0854648
0.0724727 0.11824932 -0.003534141 -0.09439321 0.12800282 -0.05922148 0.0945713 -0.07878833
0.020572927 -0.06438536 -0.06898644 0.11933828 -0.026248349 0.17207597 -0.0309712 0.11743183
-0.045381933 -0.048921525 0.049394574 -0.025353465 -0.016677046 -0.13767092 -0.017425619 -0.10018908
-0.018794956 0.06412479 0.114175074 0.060110874 -0.08038956 -0.081831224 -0.053150762 0.07866252
-0.09354686 0.10385353 -0.031500068 -0.13556342 -0.10609921 -0.10995833 -0.023543311 0.0500506
-0.08001481 0.075163096 -0.076980606 0.13700028 -0.04375891 0.05598035 -0.05750081 0.10119775
0.11290717 -0.019458111 0.018122427 -0.034128524 0.04471391 0.07298831 0.04468591 -0.1902497
0.13851067 0.12180994 -0.09907298 -0.08215953 0.052884 0.012155667 -0.005293059 -0.07416827
0.024179798 -0.026817143 0.04303376 -0.099035546 0.13432157 -0.101069145 -0.0498934 0.10443211
-0.13280216 0.032102317 -0.041143935 0.09466408 0.0071475715 -0.041637853 0.13115537 -0.017608615
-0.04775584 0.008479243 0.107423365 -0.03911982 -0.0007630206 -0.09779782 0.10259616 0.04750682
0.03306787 -0.07994277 -0.12184279 -0.0052404706 0.035221804 -0.0016979753 -0.03585661 0.068383686
0.035094872 -0.108664684 -0.053828157 0.013367183 0.009709224 -0.13871102 -0.112674884 -0.106477626
-0.09448205 0.11834406 -0.030474285 0.060166486 -0.043646164 0.053875547 0.03329853 -0.11545958
-0.120482154 -0.07520535 -0.0029707726 0.051367328 -0.07795086 -0.033507474 -0.09315859 -0.039267074
0.0800361 -0.13242848 0.11478254 0.11858911 0.014650578 0.10290433 -0.094264016 0.044729397
0.033768654 0.11322707 -0.05193105 -0.122430846 -0.08797266 -0.047062255 -0.057985276 -0.11275305
0.022865301 0.08520543 0.006801189 0.065229245 0.008757895 0.08648141 -0.123197556 -0.023348218
0.08378618 -0.11933392 0.09225959 0.12642263 0.08742494 -0.072530046 0.035662755 -0.024301644
-0.016240213 -0.1071465 -0.025938498 0.115573876 0.025152601 0.036085647 -0.033528116 0.062326178
0.04160032 0.13354473 -0.011593033 0.09866645 -0.021240378 -0.06819713 -0.006052035 -0.14485045

fc1.bias f4 [128]
00000000: a70a a53d 67f9 41bd 28e8 02be 64bb bfbd
00000010: 4bea 663c 1d78 66bd e641 34bd 1214 2ebd
00000020: 63da 24bd d17a a3bd 32b3 fbbd dee9 983d
00000030: 7ba2 013e 35e5 d23d 088c 86bd 0864 013e
00000040: 9388 d9bd 0cae e4bd 5122 adbd d136 c13d
00000050: b7e5 f6bd 94b7 c13b 4a59 31bd a4c6 edbd
00000060: 860b 653d 4bc1 843d be3b a7bb 9f62 79bc
00000070: 64cf 713d a753 fcbd 84b5 ccbd 2753 02bd
00000080: eb62 18be 2ce3 943d 1ee1 cdbc a476 933d
00000090: bbff ab3d 4344 aebc 9622 0a3e e8f4 77bd
000000a0: e2f5 54bc 05ef b5bd b40f 2a3d ad23 af3b
000000b0: 10f9 49bb 0943 263e 3eaa b6bd cf81 193e
000000c0: 9fc4 a63d b7d1 1dbe 1264 933d f7b9 a3bd
000000d0: 93a8 f23d 3246 cb3d 5c19 6abc deeb da3d
000000e0: b389 99bd 4ac7 603d 0422 ef3b 70fe ddbd
000000f0: 0d39 f13d 26e6 9a3d f07b 4e3d 629f 4dbd
00000100: 18e3 54bd 9418 663c b0d0 dabd 85cc ef3d
00000110: 2bc3 5f3d 3731 80bd 135c 963d 9705 463c
00000120: 4c34 7c3d 88cf 0e3d fbc1 17bb 4631 15bc
00000130: 29c0 a03d 83b6 d0bd d4e4 02bd ce9f b33d
00000140: ba62 3bbc 8869 353b db0f 81bd 7654 d2bb
00000150: 504d e03d ed11 1abc 4a40 0dbe 7e79 093c
00000160: 476b 8dbc c589 19bd ee4c 1dbe 9ea4 8038
00000170: f344 ed3d 6b86 e23d d52a 67bd ac39 2fbd
00000180: c24f b6bd f7ec 463d 6da8 cd3d fb27 623d
00000190: 1ca0 e43d c187 fa3d a367 bd3d bf06 2e3d
000001a0: 9a64 ccbd 3a0f 0ebe 063a 313d 5f94 c8bc
000001b0: 0b2c f5bd b1f8 5fbd 89d0 af3d 1495 d3b8
000001c0: 3af3 3dbd 2618 86bb 8ab1 b5bc 1784 773c
000001d0: 7df8 0fbe bc46 f8bd 5bf2 c6bd 6f9a 46bd
000001e0: b907 7abd f8b0 113d 0723 dcbd 7282 f23d
000001f0: 279a cdbc 68d1 b2bd 0266 b43d 3325 893d
0.080586724 -0.04735699 -0.12783873 -0.09361914 0.014093946 -0.056266893 -0.04400816 -0.04249961
-0.040247332 -0.0798241 -0.12290038 0.074664816 0.12659638 0.10297624 -0.065696776 0.12635815
-0.106217526 -0.11166009 -0.08453811 0.094342835 -0.120555334 0.005911777 -0.043298043 -0.11610153
0.055919193 0.0648218 -0.0051035574 -0.015221267 0.059035674 -0.12320643 -0.09995559 -0.03181758
-0.14881484 0.07269892 -0.025131758 0.07200363 0.08398386 -0.021272784 0.13489756 -0.060536295
-0.012998076 -0.0888348 0.041518882 0.005344829 -0.0030818619 0.1623651 -0.0891919 0.14990924
0.08142971 -0.15412031 0.07196821 -0.07994454 0.11848559 0.09925498 -0.014288273 0.10689519
-0.07496967 0.054877557 0.007297756 -0.10839546 0.1177846 0.075634286 0.050411165 -0.050200827
-0.051974386 0.014043946 -0.10684335 0.11708931 0.054629486 -0.06259387 0.073417805 0.012086294
0.06157331 0.034865886 -0.0023156393 -0.009105986 0.07849152 -0.10191061 -0.03195651 0.08770715
-0.011437112 0.002768131 -0.06301852 -0.00641876 0.10952246 -0.009403688 -0.13794056 0.008390782
-0.017263068 -0.037484903 -0.15361378 6.134178e-05 0.11585417 0.110607944 -0.056437332 -0.04277961
-0.08901931 0.04856583 0.1004189 0.05521391 0.11163351 0.12232924 0.09248283 0.042486902
-0.09980126 -0.13872996 0.043268226 -0.024484811 -0.11971291 -0.05468053 0.08584697 -0.00010089032
-0.046374537 -0.004092234 -0.022179384 0.015107176 -0.14059635 -0.121228665 -0.097141944 -0.048487123
-0.06104252 0.03556916 -0.107488684 0.11841287 -0.02509792 -0.08731347 0.08808519 0.06696548

fc2.weight f4 [64, 128]
00000000: 188b 91bc e2f6 ab3d 8d40 99bd 35ac 6dbd
00000010: 871b 393d 9c58 c1bd 7bc2 6d3d 9176 bc3c
00000020: 6a33 593d 98e6 23bd 40f6 653d bd1f 47bd
00000030: fb68 87bc 0d18 4b3c bb8e 9fbb 1f2c 4d3b
00000040: a480 643d c05a 953d 7c1b 4abd c55c 16bd
00000050: f08b 6a3d 5b98 b23c 4bfa 863d db31 5c3d
00000060: 9a60 32bb 03fa a0bd ead1 0cbd 8583 553d
00000070: 7898 8bba e00a a6bd bade d33b 2706 633d
00000080: 5da2 d6bc 529e 88bd 3122 96bd 4057 7d3d
00000090: 7a39 0a3d 46d3 78bd d771 533d 8e7c b2bd
000000a0: 12ea c93c 03c0 babd 99e2 843d 3540 143d
000000b0: ab95 2cbc 1f58 b6bd 1f52 d1bc 3ab4 92bc
000000c0: 8c6c 6d3d 83bc 953d 0bcf 253c 2853 7cbd
000000d0: 50b3 56bc 8a44 2dbd 2c4d 983d 32f4 2f3d
000000e0: 1a9b 9d3d 4744 0bbd 654b 16bd f60a f3bc
000000f0: 4162 00bd d7d4 b4bd b7a2 2ebc d2b5 81bc
00000100: d107 a6bd d2eb 52ba 939f 1b3d 664f 9e3d
00000110: d770 7ebd abfe 3cbd b850 b6bd f2fe b0bc
00000120: ba5e b03d e93c 8f3d c6d0 9c3d ebf7 a2bd
00000130: c2be ad3d 96cd f53c d4e6 df3c 2718 5d3d
00000140: db74 62ba 15a1 9dbd 5afe aebd 90fb f83c
00000150: 19d5 f0bb 6a39 723d 27b2 42bd 6b9f a6bd
00000160: be90 69bc d90f 843c 4755 323d 7c4c 80bc
00000170: 1019 babc e004 1b3c 9fed 093d eb5c 5c3d
00000180: 9c98 fbbb 4743 673c e268 f83c f88e e6bc
00000190: 4381 653d 3b5b 1b3d d714 a6bd 8743 ebbc
000001a0: faea 82bc 6888 87bd 5d6f b2bc 1829 9ebd
000001b0: 162e 393d a937 a03d 0a43 d6bc d662 8dbd
000001c0: 94d9 afbd bb0b 943d 665a bcbd 95f8 3dbc
000001d0: ff88 84bd d1c3 233c 6302 ddbb 5a35 f73c
000001e0: fc41 0dbd 1684 c4bc 3436 dc3c a247 193d
000001f0: 1fdd 8ebd aa8c 3a3b fce4 94bd 2d38 683d
00000200: 3be7 e73d 056c 303d cf7a 9cbd ae59 2dbd
00000210: 76f8 14bd f43d b53c 8847 783c 1868 a8bd
00000220: fe7b 003d c6b5 673d 4cb1 ee3c 4f16 99bd
00000230: a49b 9c3d 9e0d 91bd 34a0 d7bc f51c 973c
00000240: 5150 903d a5a6 743d ebe8 8dbd 8e0f b23d
00000250: da27 9cbd 6e59 14bd 47ec 58bb 8efb ae3d
00000260: 5ea3 563c 152c 6f3d f843 cbbc 622b 7bbd
00000270: c2c5 8c3d 7935 9ebd 1d04 13be 4085 37bd
00000280: e07c 123d bef0 0ebd 2f28 143d 5edf 643d
00000290: 8491 603d 2253 a23b 1b84 1abd 30f6 9b3d
000002a0: e46e 40bc 059b dcbd 5830 a5bd 4359 863d
000002b0: f218 adbc 6f3a 04bd f981 afbd b010 43bd
000002c0: 7bd4 d0bd 196c 88bd 4bbc b03c 6e28 c13c
000002d0: f899 ae3d b310 0bbc 470e 623d 36e7 e23d
000002e0: 0925 053d e681 39bd c748 873d 87fa debc
000002f0: 636e 9cbd 1dbe ad3d 6d10 cbbd 106a 033d
00000300: 4ee9 223d f022 63bc 045f 933d 5572 70bd
00000310: 03d5 abbd cd10 103d 95df c0bd 1b6f 43bc
00000320: 47df 3fbd 7f49 243d a749 b8bd 8b4b 283d
00000330: aed6 5cbd b92b 243d b36a 453d 2bd0 463c
00000340: 4d35 1dbd bd5d 323e 8820 2ebd 5b10 223d
00000350: 1251 31bd b523 1dbd 94ee d4bc f465 89bd
00000360: 2f27 0d3c cbed 1ebd 7691 79bc 1456 923d
00000370: 32e4 88bd a392 ba3d 962c 1fbd c328 85bc
00000380: cbb1 5ebd ffe6 2c3d 1a8d 963d 9090 403d
00000390: 66f8 803d 81fc bdbc 9de5 40bd aa46 943c
000003a0: f225 b13d d64c 983d d743 503d a5b6 96bd
000003b0: 4fa1 e4bb 39f4 8a3d 4cca f7bc 0ba4 4fbd
000003c0: 5786 4bbc a6f5 73bd 4718 883d ea2b 2f3e
000003d0: c92d 84bd 8009 81bc eaa5 69bd 3bd6 5e3c
000003e0: 1777 b83c 879f c73d 6cb8 7e3c dc10 8dbd
000003f0: f7bb c9bc d1ca 2d3d c112 d8bb 5fd6 34bd
-0.01776652 0.083966985 -0.07483015 -0.058025558 0.045192268 -0.09440729 0.0580468 0.023005756
0.053027548 -0.040014833 0.056143045 -0.048614252 -0.01652955 0.012395871 -0.0048693097 0.0031306816
0.055786744 0.072927 -0.049342617 -0.036709566 0.05726236 0.021801164 0.06590708 0.053758483
-0.0027218224 -0.07860186 -0.034379877 0.05212738 -0.0010650298 -0.08107543 0.00646576 0.05542579
-0.026200468 -0.06670822 -0.0733074 0.061850786 0.03374622 -0.06074836 0.051622238 -0.08715163
0.024647746 -0.091186546 0.064885326 0.036194045 -0.0105337305 -0.089035265 -0.025551854 -0.017908204
0.057964846 0.073113464 0.010120164 -0.06160274 -0.013104275 -0.042301692 0.07436594 0.042957492
0.07695599 -0.03400066 -0.036692996 -0.029668313 -0.031343702 -0.088296585 -0.010658911 -0.015833769
-0.081069596 -0.0008046004 0.03799398 0.07729988 -0.06211933 -0.046141308 -0.08902115 -0.021605942
0.08611818 0.069940396 0.07657008 -0.07957443 0.0848365 0.030005258 0.027331747 0.05397811
-0.00086386286 -0.076967396 -0.085446075 0.030393392 -0.007349622 0.059136786 -0.04753318 -0.08135875
-0.014255701 0.016120838 0.043538358 -0.01566147 -0.022717029 0.0094616115 0.03367388 0.05379955
-0.0076781046 0.014115161 0.03032345 -0.028144345 0.056031477 0.0379288 -0.08109444 -0.028718723
-0.015981186 -0.06617814 -0.021781618 -0.07722682 0.045209967 0.07823116 -0.026155014 -0.06903617
-0.085864216 0.072288 -0.0919693 -0.011594911 -0.064714424 0.009995417 -0.0067446693 0.030176807
-0.034486756 -0.023988765 0.026881315 0.03742183 -0.06975769 0.002846519 -0.07270238 0.0566942
0.113234006 0.043071765 -0.076406114 -0.042321853 -0.036369763 0.022124268 0.015153773 -0.08222979
0.03136825 0.056569837 0.029137276 -0.07474958 0.076468736 -0.070826754 -0.026321508 0.018446425
0.07046569 0.059729237 -0.06929191 0.08694373 -0.076247886 -0.0362181 -0.0033099817 0.08544074
0.013100473 0.05839165 -0.024812683 -0.06132067 0.06873657 -0.07725043 -0.14357038 -0.04480481
0.03576362 -0.03489756 0.036171135 0.055877082 0.054826275 0.004953758 -0.03772364 0.07615316
-0.011745188 -0.10771755 -0.080658615 0.06559994 -0.021130059 -0.03228229 -0.08569712 -0.047623336
-0.101967774 -0.06661243 0.02157416 0.023578849 0.08525461 -0.008487868 0.055189397 0.11079256
0.032506023 -0.045289896 0.06605678 -0.02721907 -0.07638242 0.08483527 -0.09915242 0.03208357
0.039773278 -0.01386331 0.07195857 -0.058702786 -0.08390238 0.035172272 -0.09417645 -0.011928345
-0.046843793 0.040109154 -0.08998423 0.04108767 -0.053915672 0.04008076 0.04819746 0.012134592
-0.03838091 0.17418571 -0.042511493 0.03956638 -0.043290205 -0.03836413 -0.02599267 -0.06708899
0.008615299 -0.038800996 -0.0152324345 0.07145324 -0.0668415 0.0911 -0.03886088 -0.016254788
-0.054368775 0.042212483 0.07351132 0.047012866 0.06297378 -0.023191692 -0.047093976 0.018100102
0.086498156 0.0743653 0.050845947 -0.073590554 -0.0069772373 0.06784863 -0.03024783 -0.050693553
-0.012422166 -0.05956044 0.066452555 0.17106596 -0.06454045 -0.0157516 -0.057042994 0.013600881
0.022517724 0.09747224 0.015546899 -0.06887981 -0.024625761 0.04242975 -0.0065940325 -0.044149753

fc2.bias f4 [64]
00000000: ddac 9abd ca44 9f3d 9d7f 85bd 5835 0e3c
00000010: 18e6 893d ecbb 993d 59ca d13c d203 3dbd
00000020: 2109 a1bc bc03 453d f3ae 88bc 6d9f 173d
00000030: 203e d5bc af4c 9abc 528b 4d3d 4203 193d
00000040: c04d 5a3d ff3a f6bc 6502 54bb 9fd5 abbd
00000050: 168f 9bbd d1ae 4cbd be98 eebc 43d9 bdbd
00000060: 1ddd 48bd bc39 41bc aebf c1bd 8610 9dbc
00000070: 196d f23c 9949 c6bd d84b a53d 98a4 a0bd
00000080: d3e5 a83d 929a 1dbd ac14 4cbd c33c 103d
00000090: 44f4 07bd 995e 7fbc 3bd8 a43c 121d b9bd
000000a0: 0f46 9ebd e2d2 d63d 52f5 89bd 6d92 23bd
000000b0: a25a 643d 3a26 753d 7370 c33c d686 91bc
000000c0: bcbb 88bd 8aef bcbb afc2 47bc a0e4 913d
000000d0: 07d8 8cbd 531b 913d c5b6 86bd 4a21 b0bc
000000e0: 3ca2 c33c 5cde 203d 6e67 36bd 1545 72bd
000000f0: ca7a 833c fc56 63bd 642f ab3d 846e f6bc
-0.07552502 0.07776792 -0.06518481 0.00867971 0.0673334 0.075065464 0.025609182 -0.04614622
-0.019657673 0.048099265 -0.016684985 0.037017275 -0.0260306 -0.018835394 0.050181694 0.037356623
0.053296804 -0.030057428 -0.003235006 -0.08390354 -0.07595651 -0.049971405 -0.029125568 -0.09269955
-0.049038995 -0.01179355 -0.09460388 -0.019172918 0.029593037 -0.096820064 0.08071107 -0.07843894
0.082469605 -0.038477488 -0.0498244 0.035214197 -0.033191934 -0.015586519 0.020122638 -0.09038748
-0.07728206 0.104894415 -0.06736244 -0.039934564 0.055750497 0.05985091 0.02385733 -0.01776449
-0.066764325 -0.00576586 -0.012192412 0.07123685 -0.068771414 0.0708529 -0.06577829 -0.021500248
0.02388107 0.03927456 -0.044532232 -0.059147913 0.016049761 -0.055502877 0.083586484 -0.030081995

fc3.weight f4 [3, 64]
00000000: ead3 003d 31e7 a2bd 956c 5aba 50d4 92bc
00000010: 814f 723c 8a67 2abd fb7a 1c3d 2022 60bd
00000020: 06f8 e53b a081 84bc d36c d0bd cd55 96bd
00000030: d139 9ebd 1ac7 bb3d 2483 b43d b9a3 bdbd
00000040: 24ae 88bd 22f3 e93b a4f7 77bc 8186 90bd
00000050: 0fb9 9e3d aa14 763d 6cc4 f93d 3af2 60bd
00000060: 8b02 d2bc aa34 8e3d 8df2 a8bd 606c a03d
00000070: bf41 1cbd ee60 8fbc 8c84 553d 75a8 45bd
00000080: 32f9 b5bc ae56 97bd 12d1 d6bc 1429 5f3d
00000090: b7c4 a03d 28f1 d03d 31aa 64bd fc4e 953d
000000a0: 6140 203c 872c 9dbd 8812 713d 7bda c9bd
000000b0: ea6e 9f3d 386c 7c3d eb3f 6e3c 557d c73d
000000c0: a2cb 18bc 61d2 673d a789 04bc c589 cfbd
000000d0: 57b2 253d 3c2f 38bd a5e2 08bd 82ad 8e3d
000000e0: 3ebe 5c3d aed3 573d b982 00be f4e5 773d
000000f0: cf7b ddbd 4288 81bc 8554 ef3c 40bf 713d
00000100: 2a0e f9bc 73bb 82bd bc92 d73d 4dcb 1e3d
00000110: 9b10 1e3d b718 253c 1ef2 c1bd afa9 e83d
00000120: 9d75 c3bc dee4 503d 8f52 0a3d a65f ac3d
00000130: d5c9 c13d 90f5 4e3d 838f d23d fba3 d5bd
00000140: a36c eb3d f09a de3d 947e 853d 2231 9ebd
00000150: b1ba 4fbd 95db 56bd 846a d93d 47c5 04be
00000160: 3673 4abd ac32 a03b 33cb 9f3d 3029 af3d
00000170: 732d bdbd 9e73 fe3c 8010 823d ecdf db3c
00000180: b214 88bd 2ee0 713d 115a e7bd 2e1d d4bc
00000190: ebb8 85bd 0069 68bc c39b b33d 5639 b53d
000001a0: ca73 463d e0bf 12bc 50cf 6f3d 2209 023d
000001b0: 8404 d93c 084e 343c 45e7 50bc 7296 11bd
000001c0: 1eb4 893d 7100 a63d 632b 8ebc 23dc d2bd
000001d0: 236c 963d d227 fa3c 3efa 00bb 63c1 a3bb
000001e0: eca6 7fbd be5a e93d 39c4 9dbd 6a6a 5bbd
000001f0: b568 ed3c 181f b13c 417a db3d c36f 103e
00000200: 5d69 90bc d5fe 103e 02d2 4b3d c3a1 fb3d
00000210: 4a35 3ebd ee9b f93b 5462 f43c 936d 8e3c
00000220: d760 b33d dc4a 023d d497 e1bd 8827 5abc
00000230: 1fa9 f63d 1682 a13d 980b c13d b3b5 b2bd
00000240: dae1 263d 1135 ccbd ac5c cf39 bc18 a03c
00000250: b73a af3b 6e07 473b fb3d ca3d 5205 06bc
00000260: 93b3 033e d1fe 853d e2ab f9bd 3cc0 603d
00000270: 5ac6 86bd e9bf db3c d9f3 a83d 80ac c9bd
00000280: 7c2e c6bd bded 8ebc 944d 243d d560 3e3d
00000290: 6b5b 893d cf11 933d fbf6 863c fd5f ccbc
000002a0: a0cc b0bd ed67 043d 84b9 193c 0324 40bd
000002b0: ba09 823c dc79 2fbc 77b0 96bd 85d4 bd3d
000002c0: ff81 b23b 29c8 aa3d 1991 1abd 046d 4abd
000002d0: 6e05 a83b 092f 433d 0e37 48bd 5452 f43d
000002e0: 55f3 8f3c 71ac 67bd ca9d 783d 94c8 d43d
000002f0: 2aa1 033d b5b7 e83c 2509 043e db2d 8bbd
0.031452097 -0.079542525 -0.000833222 -0.017923504 0.014789463 -0.04160265 0.03820322 -0.054720044
0.007018092 -0.016175091 -0.101770066 -0.07340584 -0.07725871 0.09168835 0.088140756 -0.09259743
-0.0667384 0.0071395794 -0.015134726 -0.070569046 0.07750141 0.0600783 0.121956676 -0.054918505
-0.025635978 0.069436386 -0.08249388 0.07833171 -0.038148638 -0.017502274 0.05212836 -0.048256356
-0.022213552 -0.0738958 -0.02622274 0.054482535 0.078500204 0.10202247 -0.05582637 0.07290456
0.009780974 -0.076745085 0.058855563 -0.09856125 0.07784827 0.061626643 0.014541606 0.09740702
-0.009325894 0.056597117 -0.0080894595 -0.10133699 0.04045328 -0.04496692 -0.03341927 0.06966688
0.053892367 0.052692108 -0.12549867 0.060522035 -0.1081463 -0.015812043 0.029215107 0.05902028
-0.030402262 -0.06383409 0.10526034 0.0387681 0.038590055 0.010076693 -0.09470008 0.113604896
-0.023859793 0.050999515 0.03377014 0.08416681 0.094623245 0.050527155 0.10281279 -0.104316674
0.1149533 0.10869396 0.065182835 -0.07724215 -0.050715152 -0.052455503 0.10616019 -0.1296588
-0.04942628 0.004888853 0.07802429 0.08552778 -0.092371844 0.03106099 0.063508034 0.026840173
-0.06644572 0.059051685 -0.11296476 -0.02589282 -0.06529411 -0.01418519 0.087699436 0.088488266
0.04845027 -0.008956879 0.058547318 0.03174699 0.026491411 0.011004932 -0.012750451 -0.035543866
0.06723808 0.08105553 -0.017354673 -0.10295894 0.07344844 0.030536566 -0.0019680406 -0.0049974187
-0.06241505 0.11394261 -0.07703442 -0.05356828 0.028980592 0.021621272 0.107166775 0.14105134
-0.017628366 0.1415971 0.049760826 0.12286713 -0.04643754 0.007617465 0.029832043 0.017386233
0.08758705 0.031809673 -0.11015287 -0.013315089 0.12043976 0.0788614 0.094260395 -0.087260626
0.040742733 -0.09971059 0.00039551163 0.019543044 0.0053475755 0.0030369419 0.09875103 -0.008179979
0.12861471 0.06542743 -0.12190987 0.05487083 -0.06580801 0.026824908 0.08249635 -0.09847355
-0.09676835 -0.017447347 0.040113047 0.046479065 0.0670689 0.07181131 0.016475191 -0.024948115
-0.08632779 0.032325674 0.009382609 -0.046909343 0.015873779 -0.010710206 -0.07357877 0.092690505
0.0054476256 0.08338959 -0.037736032 -0.04942037 0.0051276004 0.047652278 -0.04888063 0.11929765
0.017572084 -0.056560937 0.060697354 0.1038982 0.03213612 0.02840791 0.12894113 -0.067958556

fc3.bias f4 [3]
00000000: 202a a0bd 2cf6 f33c 168e a43d
-0.07820535 0.02978047 0.08034913
